Encoder/complex_autoencoder_model.pth (torch, 97102 bytes, 16 tensors)

encoder.0.weight f4 [128, 3]
0.26087072 -0.49008763 -0.27894938 -0.11587857 0.5845052 0.3816977 -0.017632604 0.2928489
0.4421314 -0.32773986 -0.2158982 -0.22323315 -0.47376654 -0.081688866 -0.0006219558 -0.0745476
0.16419421 -0.03798033 0.16981637 0.4123679 -0.61640173 -0.36811596 -0.03152663 -0.50515276
-0.08676825 -0.20397343 0.30064496 0.51376283 -0.13996178 0.5703523 -0.28847498 0.015044156
0.08206314 0.107615024 -0.009688567 0.123693004 -0.014067389 -0.5718263 0.26935625 -0.3022523
0.1879461 0.36498913 0.013877228 0.22248322 -0.27607405 0.3994207 -0.04679916 -0.42671576
0.43581828 -0.14164352 -0.012634364 0.46630108 0.30096197 0.52357996 0.4154414 -0.072177276
0.024325764 -0.5404312 -0.20180927 -0.36095354 0.10428015 0.0366447 0.19567913 -0.40986007
0.21367356 -0.22482646 0.32434416 -0.25880218 -0.18186386 0.4724025 -0.37579715 -0.20824312
-0.27861065 0.19948862 -0.52557117 -0.46136236 0.22494335 0.3517247 0.3009871 0.02322768
0.1555385 0.5436872 -0.1290148 -0.38172826 0.25039372 -0.24747308 0.5215489 -0.22445643
0.43203652 0.52911854 0.26429597 -0.44712946 -0.43689737 -0.074291326 0.49897873 -0.04304329
0.22502328 0.059712067 0.2624197 0.43985423 0.34522912 -0.44317067 -0.5388111 0.19743493
0.26371053 0.019463805 0.20853168 0.25889617 -0.22824077 -0.45156506 -0.19670124 0.5457015
-0.41238433 -0.020606384 0.22052424 -0.46827367 -0.05936414 -0.32287115 -0.42151466 0.31377676
-0.07113078 -0.48250005 0.36109218 -0.17959002 0.30600452 0.43239725 0.03478111 -0.048679322
0.21447909 0.14758523 0.18136983 0.114203826 0.25305822 -0.029236507 0.5891951 0.610182
-0.17699647 0.27700743 -0.30071148 0.039360274 -0.511058 0.32827502 0.04039968 0.0663458
0.38854173 -0.34403124 -0.34809324 0.43609473 -0.14433779 -0.6303269 -0.2567297 -0.40130785
0.3535724 -0.50103784 -0.028944701 0.3479278 -0.167159 0.437395 -0.22570853 0.4783283
-0.27157807 -0.4854209 0.062799975 -0.5393264 0.06518898 -0.22043762 -0.36140183 0.48883674
-0.06558102 0.3572769 -0.21046416 -0.20561829 0.24939138 -0.5416606 0.38719225 0.48786184
-0.3714924 0.13366449 -0.12301036 -0.2287122 0.11831175 -0.5133808 0.53451574 -0.518967
0.36717206 -0.46532586 0.5411878 -0.29209256 0.29253757 0.21940172 0.25303057 0.5906567
-0.06284265 -0.026403531 -0.35569617 0.18482044 -0.49148208 -0.3201894 0.08834537 0.41508913
0.08413033 0.113045365 0.12596823 0.09695937 -0.4247316 -0.54901516 -0.4807664 -0.11789528
-0.15033653 -0.1233718 -0.09471355 -0.4659424 0.3094729 -0.46543625 0.4854016 0.17265806
-0.2843486 -0.467616 0.6360752 -0.447713 0.360234 0.64779586 -0.5299926 -0.011824292
-0.03537652 -0.031611007 -0.4369377 0.15040776 -0.40183693 0.21468364 -0.44666672 0.40668124
-0.32664987 -0.4678876 -0.1763672 -0.3026434 -0.06695226 -0.5228478 -0.067175955 0.5787317
-0.2507949 -0.005745485 -0.294267 0.092253014 0.24545851 -0.124902725 0.12875536 0.44564885
-0.0012369264 -0.2604098 -0.1293774 0.32075214 -0.27942806 -0.070605434 0.008212882 -0.30833772
00000000: d990 853e c4ec fabe 74d2 8ebe be51 edbd
00000010: 22a2 153f e26d c33e 4072 90bc 4bf0 953e
00000020: 0c5f e23e 85cd a7be 6b14 5dbe 3b97 64be
00000030: 8791 f2be 7e4c a7bd bf0a 23ba 69ac 98bd
00000040: 8722 283e 4391 1bbd 58e4 2d3e e321 d33e
00000050: 81cc 1dbf b279 bcbe 1122 01bd b151 01bf
00000060: 8db3 b1bd 69de 50be 23ee 993e f685 033f
00000070: 2452 0fbe 9c02 123f feb2 93be c47b 763c
00000080: b810 a83d 4465 dc3d ccbc 1ebc c252 fd3d
00000090: e87a 66bc 3563 12bf 10e9 893e d0c0 9abe
000000a0: f174 403e dbdf ba3e 505d 633c a4d2 633e
000000b0: 9459 8dbe df80 cc3e 7ab0 3fbd 7d7a dabe
000000c0: 9323 df3e 000b 11be 5d00 4fbc 04bf ee3e
000000d0: b017 9a3e 5609 063f bcb4 d43e aed1 93bd
000000e0: d346 c73c b359 0abf 17a7 4ebe e7ce b8be
000000f0: d590 d53d c118 163d 1c60 483e 2ed9 d1be
00000100: 3ecd 5a3e e838 66be 7010 a63e b881 84be
00000110: 853a 3abe bede f13e 7c68 c0be af3d 55be
00000120: 0ea6 8ebe bf46 4c3e d58b 06bf b037 ecbe
00000130: 8d57 663e 4315 b43e fb1a 9a3e fa47 be3c
00000140: 7c45 1f3e 162f 0b3f 751c 04be e371 c3be
00000150: 9b33 803e 9569 7dbe 3b84 053f e8d7 65be
00000160: e433 dd3e 5074 073f cd51 873e 27ee e4be
00000170: 03b1 dfbe 0d26 98bd 247a ff3e 294e 30bd
00000180: 816c 663e a494 743d e05b 863e 9334 e13e
00000190: dfc1 b03e 44e7 e2be 86ef 09bf 622c 4a3e
000001a0: 1105 873e 8f72 9f3c 5489 553e 0a8e 843e
000001b0: f3b7 69be 8933 e7be 0d6c 49be 18b3 0b3f
000001c0: 0a24 d3be b8ce a8bc 1bd1 613e 91c1 efbe
000001d0: d027 73bd 5e4f a5be c5d0 d7be 59a7 a03e
000001e0: 04ad 91bd 3f0a f7be 13e1 b83e 72e6 37be
000001f0: a0ac 9c3e 2c63 dd3e a376 0e3d f863 47bd
00000200: 68a0 5b3e 9520 173e 03b9 393e b2e3 e93d
00000210: d990 813e 6681 efbc 7dd5 163f e334 1c3f
00000220: 903e 35be ebd3 8d3e dbf6 99be 3d38 213d
00000230: b2d4 02bf aa13 a83e 237a 253d 4fe0 873d
00000240: f1ee c63e dd24 b0be 4739 b2be cf47 df3e
00000250: 49cd 13be 1b5d 21bf 1372 83be 3978 cdbe
00000260: 7107 b53e 0444 00bf 701d edbc 9823 b23e
00000270: bb2b 2bbe 3df2 df3e 2320 67be 72e7 f43e
00000280: 480c 8bbe 1789 f8be 469d 803d 4c11 0abf
00000290: cd81 853d 66ba 61be a909 b9be cf48 fa3e
000002a0: 584f 86bd ffec b63e eb83 57be 9a8d 52be
000002b0: 7460 7f3e 45aa 0abf 103e c63e 07c9 f93e
000002c0: 4034 bebe 58df 083e dbec fbbd 8833 6abe
000002d0: 6e4d f23d ed6c 03bf 06d6 083f 05db 04bf
000002e0: fafd bb3e 313f eebe 498b 0a3f 288d 95be
000002f0: 7cc7 953e d8aa 603e 398d 813e 4735 173f
00000300: a6b3 80bd 384c d8bc cf1d b6be 9241 3d3e
00000310: 8aa3 fbbe ddef a3be 6bee b43d 9086 d43e
00000320: 864c ac3d 5484 e73d d1fd 003e a292 c63d
00000330: 6c76 d9be 428c 0cbf 0327 f6be 1573 f1bd
00000340: d2f1 19be 5baa fcbd 2df9 c1bd 0190 eebe
00000350: 3b73 9e3e a94d eebe 8f86 f83e 46cd 303e
00000360: 2496 91be 5d6b efbe d3d5 223f a33a e5be
00000370: 9770 b83e f3d5 253f 98ad 07bf adba 41bc
00000380: f8e6 10bd 8b7a 01bd 4cb6 dfbe 7e04 1a3e
00000390: 92bd cdbe 07d6 5b3e 80b1 e4be 8638 d03e
000003a0: a73e a7be f78e efbe 9a99 34be 13f4 9abe
000003b0: 441e 89bd 5ad9 05bf 8c93 89bd c327 143f
000003c0: 3068 80be 9f44 bcbb 2aaa 96be 26ef bc3d
000003d0: 7a59 7b3e 00cd ffbd 72d8 033e 162c e43e
000003e0: 5d20 a2ba 6f54 85be 827b 04be a039 a43e
000003f0: 3211 8fbe 9599 90bd 538f 063c 71de 9dbe

encoder.0.bias f4 [128]
0.4281497 -0.26322848 -0.29303554 -0.048990756 0.5290292 -0.46730506 0.17305276 -0.44240937
0.2907291 -0.028779047 -0.4570725 -0.54922813 0.27584624 0.031279113 0.46203473 0.038737345
-0.03385537 -0.14123599 0.3115496 -0.38036153 -0.5081578 -0.31410038 0.17195296 0.19928905
-0.15155812 0.06363829 0.048165686 -0.35887626 0.23026693 -0.037025783 0.36175308 0.05081949
-0.1710033 0.2996649 -0.26904815 0.54201865 0.5529873 0.054283608 -0.40861267 0.36168176
0.21088043 0.21825235 -0.51545763 -0.45435783 -0.30551416 -0.23874068 0.55092293 -0.0009456243
-0.10356716 0.4656223 0.24373148 0.43649864 -0.3708808 0.106224865 -0.26627257 -0.019757876
0.16332291 -0.31336272 -0.0943655 0.32663617 -0.370539 -0.1805817 0.049331628 -0.36711672
-0.09185756 0.48197034 0.47748312 -0.30314654 -0.39619312 -0.47621757 -0.50137824 -0.013933669
0.07995322 -0.135437 -0.31243947 -0.2520983 0.014539666 0.30447143 0.36172953 0.2152121
0.07413871 -0.01842562 -0.19794099 0.17586426 0.2639072 0.3598339 -0.22768486 -0.28227967
-0.17844738 -0.2604619 0.10140428 -0.29117158 0.4594125 0.3131875 -0.08396231 -0.50414556
0.002770951 0.32157832 -0.26929057 0.36510226 -0.053755533 -0.42534757 -0.379839 -0.42184657
0.19495744 0.17349365 -0.019052347 0.5258253 0.54554564 -0.58871084 0.06965052 -0.44794568
0.020344606 0.47804847 -0.33422124 0.1320176 0.37232172 -0.52826524 0.41107017 0.2928177
-0.46181458 0.12716989 -0.46231484 0.51541984 -0.44560337 -0.23279132 -0.5320871 0.29055086
00000000: 7036 db3e e2c5 86be c108 96be 88aa 48bd
00000010: 756e 073f 9c42 efbe be34 313e 7b83 e2be
00000020: 72da 943e 09c2 ebbc 6805 eabe 379a 0cbf
00000030: b83b 8d3e 871e 003d d18f ec3e 0dab 1e3d
00000040: eeab 0abd 2ba0 10be 6e83 9f3e bfbe c2be
00000050: a116 02bf c4d1 a0be 7014 303e 6e12 4c3e
00000060: 0d32 1bbe cb54 823d 6249 453d a1be b7be
00000070: 18cb 6b3e 59a8 17bd b337 b93e 1928 503d
00000080: 7d1b 2fbe ae6d 993e aec0 89be bcc1 0a3f
00000090: 9390 0d3f 7d58 5e3d ae35 d1be 5a2e b93e
000000a0: 0af1 573e 8b7d 5f3e 08f5 03bf 97a1 e8be
000000b0: 5a6c 9cbe 7078 74be 4909 0d3f c6e3 77ba
000000c0: 051b d4bd 0c66 ee3e bf94 793e c07c df3e
000000d0: 17e4 bdbe 6c8c d93d e154 88be 45db a1bc
000000e0: 1f3e 273e 1471 a0be b342 c1bd db3c a73e
000000f0: 4ab7 bdbe 69ea 38be f60f 4a3d b9f6 bbbe
00000100: d11f bcbd d1c4 f63e ab78 f43e 0636 9bbe
00000110: d3d9 cabe cad2 f3be 535a 00bf 0b4a 64bc
00000120: 84be a33d ffaf 0abe 11f8 9fbe 0713 81be
00000130: c737 6e3c aee3 9b3e 9d34 b93e 9060 5c3e
00000140: 09d6 973d 53f1 96bc 0bb1 4abe c315 343e
00000150: d81e 873e 263c b83e 3826 69be f686 90be
00000160: e9ba 36be 435b 85be 0cad cf3d 7114 95be
00000170: 1d38 eb3e 1d5a a03e 6ef4 abbd af0f 01bf
00000180: d898 353b eaa5 a43e 74e0 89be afee ba3e
00000190: c32e 5cbd 28c7 d9be 427a c2be 46fc d7be
000001a0: eca2 473e 52a8 313e ab13 9cbc 7d9c 063f
000001b0: e1a8 0b3f c1b5 16bf efa4 8e3d 2359 e5be
000001c0: bba9 a63c c5c2 f43e 0c1f abbe 9f2f 073e
000001d0: f4a0 be3e 643c 07bf ca77 d23e 34ec 953e
000001e0: f672 ecbe d338 023e 88b4 ecbe 8ef2 033f
000001f0: 2026 e4be d960 6ebe dc36 08bf 15c3 943e

encoder.3.weight f4 [64, 128]
0.0022267345 0.03844531 0.06280572 -0.04969597 -0.03782105 -0.040143494 -0.051650755 0.006093507
0.03312646 0.10208328 -0.08368269 -0.066400565 -0.055079907 0.0013860769 -0.009489416 -0.11152432
0.03708826 0.02167214 0.025048563 -0.06610744 0.07778965 0.051415097 -0.0100928955 -0.040199406
0.010363056 -0.020745058 0.051191844 -0.04875027 0.034356676 -0.0058811293 -0.15842667 -0.016751712
0.15403771 0.0074172295 -0.026474437 0.09105929 -0.052016553 -0.057002354 -0.011862389 -0.004552465
-0.043181542 0.020457266 0.05937163 -0.012609052 0.04642549 0.093327045 -0.0047374214 -0.0026471391
-0.018201113 0.0017660351 0.02777748 0.08703842 -0.07780301 -0.038531397 0.05892006 -0.047783703
0.009605583 -0.015274945 0.055177048 0.038011186 -0.0300599 0.085345775 -0.04410181 0.06504671
0.022104526 -0.07575634 0.009923349 -0.03768557 -0.06214773 0.059072863 -0.082727574 0.0030991505
-0.073477715 0.049357664 0.06466269 0.064695895 -0.008164161 -0.07277959 -0.21219063 -0.07112059
-0.07701695 -0.006054525 0.15203725 -0.0038308792 0.040013336 -0.07528269 0.042069275 -0.023351924
0.11544364 0.025814375 -0.04381825 0.07678766 -0.061883677 0.04239502 -0.039359983 -0.083273165
0.03493028 -0.07567348 -0.044149056 -0.041390415 0.061031684 -0.052810475 0.019016478 0.079060756
-0.20125794 -0.03622855 0.016033188 -0.03711391 -0.010399138 0.025976226 0.06470744 0.051353596
0.010214904 0.021949893 -0.0017398746 0.012308825 -0.021258507 -0.046560045 0.09012559 0.023751449
-0.078159146 0.035059914 0.105197325 0.0859738 0.027716635 -0.02121993 0.0449327 0.03639093
-0.0406361 0.065799356 -0.004506497 -0.017145865 -0.11076613 0.061640985 0.15034184 -0.04412085
0.021151906 0.0405605 0.058841012 0.015392271 -0.14285006 -0.095561504 0.021548582 0.13001642
0.16759881 0.008140686 -0.047207076 -0.07347481 -0.030702187 -0.08523103 0.049230274 0.010363946
0.057286933 -0.11445446 0.12923081 0.07503296 -0.035823837 -0.05113984 -0.0014892234 -0.045852687
0.058914874 0.105529554 0.041402787 0.026044933 -0.033357672 0.10510218 0.014699588 -0.115478285
-0.10800034 -0.060016602 0.058305487 -0.011343466 0.011819458 0.16889943 -0.04376942 0.076712295
0.008984627 -0.023702182 -0.20971252 0.032344412 0.04637833 0.01605125 0.05330078 -0.091264315
0.040395398 -0.08524733 0.094847314 0.04673455 0.066174574 0.0030045118 0.057613745 -0.037061922
-0.07172648 -0.038858276 -0.015390662 -0.010951205 -0.008098011 -0.031374376 0.017138446 -0.1676296
-0.1413861 -0.09972691 0.074600585 0.01738173 -0.07555989 0.02952213 -0.15268052 -0.08662835
-0.0064902245 0.18512952 0.072553866 -0.17901884 -0.16063571 -0.21422525 -0.03143769 0.048052084
0.057070836 0.052447528 -0.12145791 -0.0249271 -0.0029225056 0.12652005 -0.03478999 0.04101801
-0.0323577 0.008534144 -0.04946864 -0.05734859 -0.008294395 0.07008554 0.027465563 -0.08067463
-0.23493679 -0.026553694 -0.0690767 -0.03422141 -0.03469196 0.060013913 -0.037135884 -0.04226448
0.12998997 -0.053678907 0.042268336 -0.13297896 0.044820618 -0.04469606 -0.028862001 0.057704113
0.07019118 0.01625355 -0.072085075 0.0032714834 0.16901918 0.0013906261 0.006173934 0.06223633
00000000: 68ee 113b d478 1d3d 49a0 803d 008e 4bbd
00000010: 3fea 1abd 816d 24bd be8f 53bd 0bac c73b
00000020: 9caf 073d 0a11 d13d d561 abbd 05fd 87bd
00000030: 789b 61bd 06ad b53a 7f79 1bbc dd66 e4bd
00000040: dce9 173d c689 b13c a532 cd3c 5663 87bd
00000050: 2e50 9f3d a398 523d ac5c 25bc 22a8 24bd
00000060: cfc9 293c 8af1 a9bc 8aae 513d 5dae 47bd
00000070: 96b9 0c3d 7db6 c0bb 9a3a 22be e33a 89bc
00000080: 10bc 1d3e 3b0c f33b ebe0 d8bc 4b7d ba3d
00000090: 4f0f 55bd 4d7b 69bd 775a 42bc d82c 95bb
000000a0: 21df 30bd ff95 a73c ab2f 733d 3296 4ebc
000000b0: a828 3e3d 4022 bf3d 5f3c 9bbb a07b 2dbb
000000c0: 801a 95bc 4e7a e73a 998d e33c 3341 b23d
000000d0: 2f57 9fbd 19d3 1dbd 2956 713d d8b8 43bd
000000e0: bc60 1d3c c343 7abc 5401 623d 9eb1 1b3d
000000f0: 2e40 f6bc c4c9 ae3d 19a4 34bd 3637 853d
00000100: 8d14 b53c 2426 9bbd 8b95 223c 2f5c 1abd
00000110: 9e8e 7ebd 63f6 713d 136d a9bd 1e1b 4b3b
00000120: 7c7b 96bd 432b 4a3d df6d 843d 487f 843d
00000130: f9c2 05bc 770d 95bd 8048 59be aca7 91bd
00000140: 10bb 9dbd 0965 c6bb a7af 1b3e 7d0f 7bbb
00000150: 06e5 233d d02d 9abd d550 2c3d 894c bfbc
00000160: b76d ec3d ab78 d33c c47a 33bd d942 9d3d
00000170: bd79 7dbd 67a6 2d3d ef37 21bd 1f8b aabd
00000180: 0e13 0f3d b3fa 9abd a4d5 34bd ff88 29bd
00000190: 5cfc 793d cc4f 58bd 72c8 9b3c 9bea a13d
000001a0: 9016 4ebe 6364 14bd 0858 833c c104 18bd
000001b0: 2561 2abc 18cc d43c 5685 843d 2658 523d
000001c0: 6a5c 273c 43d0 b33c 810c e4ba f4aa 493c
000001d0: 5226 aebc bfb5 3ebd c493 b83d 6692 c23c
000001e0: e711 a0bd fc9a 0f3d b271 d73d 0813 b03d
000001f0: ff0d e33c 6bd5 adbc 5a0b 383d a80e 153d
00000200: 0a72 26bd d0c1 863d 3dab 93bb 7c75 8cbc
00000210: 5ad9 e2bd 427b 7c3d 36f3 193e 10b8 34bd
00000220: c346 ad3c c422 263d 4603 713d dd2f 7c3c
00000230: 4947 12be c0b5 c3bd a786 b03c 0623 053e
00000240: 069f 2b3e 8360 053c 355c 41bd f679 96bd
00000250: 2783 fbbc 9b8d aebd afa5 493d 8acd 293c
00000260: b4a5 6a3d 1a67 eabd 1555 043e e1aa 993d
00000270: 04bc 12bd 0278 51bd 0c32 c3ba 07d0 3bbd
00000280: b950 713d e11f d83d f895 293d 2f5c d53c
00000290: 0ea2 08bd d03f d73d 8ad6 703c e17f ecbd
000002a0: 482f ddbd f8d3 75bd bcd1 6e3d f2d9 39bc
000002b0: 66a6 413c f9f3 2c3e 9047 33bd 561b 9d3d
000002c0: 4234 133c 142b c2bc e1be 56be 937b 043d
000002d0: 34f7 3d3d e97d 833c eb51 5a3d c9e8 babd
000002e0: a575 253d 2796 aebd 4f3f c23d ba6c 3f3d
000002f0: 8986 873d 58e7 443b 64fc 6b3d 3ece 17bd
00000300: 55e5 92bd db29 1fbd 1d29 7cbc af6c 33bc
00000310: 85ad 04bc 6b82 00bd ed65 8c3c 18a7 2bbe
00000320: 85c7 10be 9f3d ccbd 31c8 983d 2164 8e3c
00000330: 25bf 9abd 65d8 f13c 4858 1cbe 346a b1bd
00000340: f3ab d4bb 9892 3d3e 1f97 943d b750 37be
00000350: b07d 24be dd5d 5bbe cfc4 00bd 43d2 443d
00000360: 1cc3 693d 38d3 563d edbe f8bd eb33 ccbc
00000370: 8287 3fbb 798e 013e f37f 0ebd 8002 283d
00000380: 8289 04bd cbd2 0b3c a19f 4abd 5be6 6abd
00000390: 37e5 07bc 0289 8f3d 76ff e03c be38 a5bd
000003a0: 4593 70be 2287 d9bc 1678 8dbd c02b 0cbd
000003b0: 2819 0ebd 26d1 753d cc1b 18bd 851d 2dbd
000003c0: 171c 053e 6ade 5bbd 9021 2d3d a32b 08be
000003d0: d395 373d 3713 37bd 0170 ecbc 265b 6c3d
000003e0: 65c0 8f3d 2a26 853c 57a1 93bd 6266 563b
000003f0: 5d13 2d3e ab45 b63a b64e ca3b 86eb 7e3d

encoder.3.bias f4 [64]
-0.047632255 0.078363776 0.060908902 -0.03759177 0.024937138 -0.019795327 -0.012853602 -0.07659568
-0.03049158 0.0062591434 -0.072975345 -0.034602426 0.067079596 -0.055757493 0.07203906 -0.064773716
0.033059392 0.06471555 0.0020713704 -0.016096417 0.0059144152 -0.028438052 0.08146342 0.05287381
0.021497093 0.003939875 -0.026055247 -0.045088857 0.034306016 -0.024965923 0.0355855 0.051750563
0.026043398 -0.060893554 -0.08621953 0.020465137 -0.07550775 -0.0831328 -0.020899393 -0.10023416
-0.07295105 -0.005221841 -0.0049268333 -0.036613204 0.023728425 -0.04802179 -0.04251543 0.012665599
-0.040167093 -0.039081905 -0.031135775 0.01117267 -0.06937655 -0.053915408 -0.03321826 0.039906982
0.0077001182 0.045050856 0.08487985 0.053616505 0.06790032 0.08424614 -0.064273946 -0.051181868
00000000: 0a1a 43bd 307d a03d 9d7b 793d d4f9 19bd
00000010: f848 cc3c cf29 a2bc ea97 52bc 32de 9cbd
00000020: 7ac9 f9bc 8019 cd3b 1974 95bd 46bb 0dbd
00000030: 0761 893d f861 64bd 3789 933d 15a8 84bd
00000040: 4969 073d 9689 843d d4bf 073b a2dc 83bc
00000050: b6cd c13b ebf6 e8bc 4bd6 a63d 3592 583d
00000060: ac1a b03c 111a 813b d071 d5bc 18af 38bd
00000070: 7784 0c3d 5685 ccbc 1ac2 113d 66f8 533d
00000080: f758 d53c 856b 79bd dd93 b0bd 81a6 a73c
00000090: cfa3 9abd 8841 aabd 3435 abbc 9147 cdbd
000000a0: 5c67 95bd fa1b abbb 4671 a1bb baf7 15bd
000000b0: 1d62 c23c 7fb2 44bd a924 2ebd 5f83 4f3c
000000c0: 4086 24bd 5914 20bd 7410 ffbc 930d 373c
000000d0: 4b15 8ebd 67d6 5cbd df0f 08bd 8175 233d
000000e0: 4651 fc3b 3f87 383d 7dd5 ad3d fb9c 5b3d
000000f0: 530f 8b3d 3e89 ac3d 0fa2 83bd 14a4 51bd

encoder.6.weight f4 [32, 64]
-0.10263437 0.07216012 -0.10841674 -0.020060256 0.02015906 0.046134736 0.08087339 -0.15872495
0.023247955 0.02499404 -0.09454683 -0.12634505 -0.008226946 -0.008174572 -0.09586404 -0.13379811
-0.11532371 -0.111133344 -0.038813006 -0.044788834 0.019236047 0.07010326 -0.00013664209 -0.07373269
-0.04649279 -0.08510775 -0.055783954 -0.17036317 0.05660414 -0.06534287 -0.13195688 -0.0151297925
0.09570108 0.11574638 0.058461487 -0.048518326 -0.056491867 0.09763846 -0.13859302 -0.07950513
0.06407963 0.19044547 0.007141081 0.074598975 -0.13472055 0.05646472 -0.10891779 -0.008876117
-0.09866992 0.06458976 -0.117052905 -0.11628202 0.104706 0.030288728 0.02982241 0.1292286
0.0190509 -0.055039793 0.008834625 0.011832441 0.1550001 0.097205326 0.09097781 -0.06746593
-0.003497785 0.04307805 0.0629759 0.008434561 0.07973282 -0.041073445 -0.08361295 0.061568175
0.10931805 0.006495176 -0.109185494 0.07847355 -0.06834148 0.09793907 0.096538 0.16016057
-0.08242925 0.13390061 0.13283163 0.11645521 0.08601337 0.026476255 0.061858166 0.032928444
-0.04144058 0.14485715 -0.0074647265 0.09840759 -0.116328634 -0.035320763 -0.07800949 0.07878502
-0.094985396 0.11904672 0.09959047 0.05071575 -0.059433244 -0.017330568 0.12701702 -0.12144788
-0.031553555 0.0056456635 -0.060187355 -0.15551405 0.10060413 0.07583568 -0.07757268 0.11612617
0.10442185 -0.10074375 0.022035575 0.07748167 0.15541255 0.11572116 0.11302333 -0.049109064
0.05858286 0.1451633 0.0058766985 0.041654814 -0.18105431 0.044633914 0.062843904 0.013929699
-0.0077551585 0.09092927 -0.03231615 -0.044439383 -0.017379548 -0.08472707 -0.012703308 0.011839495
0.08107993 0.0464054 -0.114303365 -0.099863745 -0.13910635 0.044659626 -0.13474025 -0.13866785
-0.123452276 0.039370693 -0.091503195 -0.0661725 0.055904172 0.023470497 -0.08123767 -0.055928208
0.045998827 -0.059539218 -0.03845768 -0.05675546 0.13045321 0.034476135 0.0626478 0.03756307
-0.07339354 0.16066505 0.07083258 -0.05635795 0.013162017 -0.06622027 0.05473549 0.041503344
-0.1297559 0.22312526 -0.13746054 0.1827872 0.025881857 -0.013898136 -0.071104206 0.10293492
-0.08566783 -0.122355394 -0.002084351 -0.034447107 -0.06296592 -0.09994313 0.064914435 0.08450332
0.047279585 -0.104608744 0.0074433624 -0.113438234 0.24085672 -0.036534384 0.023160491 0.0357316
-0.00012689465 0.079546995 0.15363851 0.028021466 -0.09319672 0.01945734 -0.12372465 0.03764524
-0.020927062 -0.11868154 -0.11229733 0.15501279 -0.060118876 -0.118119605 0.087527305 -0.05203072
-0.06424451 -0.05912341 0.09719669 0.060806036 -0.12680428 0.084722936 -0.022568434 -0.019521335
0.08924081 0.082543485 -0.041918755 0.07246006 0.2279125 -0.02402558 0.06358836 0.03496602
-0.091389306 -0.051366612 -0.11956115 0.028414266 -0.048282128 0.08177296 0.10215265 -0.028123865
-0.0076486277 -0.10794809 0.045871053 0.13862373 0.09391709 -0.0025606146 -0.055313688 -0.03007619
-0.0059190895 0.11672879 0.10847882 0.073582485 -0.09394787 0.007654722 0.114258856 0.096093036
0.16980822 0.13561486 0.1289124 0.12666588 0.21941985 0.07016239 -0.06518647 -0.11255066
00000000: f831 d2bd afc8 933d 9909 debd 6855 a4bc
00000010: 9d24 a53c c7f7 3c3d f3a0 a53d cb88 22be
00000020: 7f72 be3c 4dc0 cc3c c5a1 c1bd 9960 01be
00000030: 50ca 06bc a4ee 05bc 5e54 c4bd 5f02 09be
00000040: d62e ecbd e199 e3bd 63fa 1ebd 7f74 37bd
00000050: ea94 9d3c 4c92 8f3d 9547 0fb9 2a01 97bd
00000060: 396f 3ebd f94c aebd b77d 64bd af73 2ebe
00000070: bed9 673d 7cd2 85bd b41f 07be f3e2 77bc
00000080: eefe c33d 700c ed3d 5075 6f3d 27bb 46bd
00000090: 0464 67bd acf6 c73d 54eb 0dbe 96d3 a2bd
000000a0: 2e3c 833d 2304 433e bbff e93b 59c7 983d
000000b0: 2ff4 09be 8d47 673d 4a10 dfbd 226d 11bc
000000c0: 7413 cabd a347 843d 6fb9 efbd 4525 eebd
000000d0: 1970 d63d 1120 f83c 204e f43c 8154 043e
000000e0: a210 9c3c 6871 61bd 1abf 103c dbdc 413c
000000f0: 59b8 1e3e 9613 c73d 9352 ba3d 942b 8abd
00000100: 183b 65bb 9c72 303d 82f9 803d 1d31 0a3c
00000110: f64a a33d a13c 28bd 443d abbd e92e 7c3d
00000120: 24e2 df3d 7cd5 d43b a59c dfbd beb6 a03d
00000130: 9ef6 8bbd 4794 c83d b7b5 c53d 2201 243e
00000140: abd0 a8bd 3e1d 093e 0405 083e 1280 ee3d
00000150: c727 b03d bbe4 d83c fd5e 7d3d fadf 063d
00000160: 99bd 29bd 6f55 143e aa9a f4bb eb89 c93d
00000170: b53d eebd 81ac 10bd 71c3 9fbd 0a5a a13d
00000180: b487 c2bd c4ce f33d 17f6 cb3d 51bb 4f3d
00000190: 4670 73bd d6f8 8dbc c010 023e abb9 f8bd
000001a0: 4d3e 01bd 42ff b83b 0487 76bd 133f 1fbe
000001b0: 8a09 ce3d bd4f 9b3d 6dde 9ebd 8fd3 ed3d
000001c0: 1fdb d53d bd52 cebd f383 b43c b6ae 9e3d
000001d0: 7824 1f3e 37ff ec3d c778 e73d 9626 49bd
000001e0: 95f4 6f3d b0a5 143e 5291 c03b 3d9e 2a3d
000001f0: 4d66 39be 0dd2 363d 4eb4 803d 6439 643c
00000200: fc1e febb 2039 ba3d f05d 04bd 1206 36bd
00000210: 8e5f 8ebc 6385 adbd 8921 50bc 71fa 413c
00000220: 3c0d a63d 9713 3e3d e217 eabd 5d85 ccbd
00000230: e571 0ebe 03ed 363d 59f9 09be f2fe 0dbe
00000240: 8cd4 fcbd 2a43 213d 0766 bbbd 7385 87bd
00000250: c6fb 643d 3345 c03c ef5f a6bd fa14 65bd
00000260: 4469 3c3d 65df 73bd cd85 1dbd 6a78 68bd
00000270: 8795 053e d936 0d3d 7d4d 803d bcdb 193d
00000280: 5a4f 96bd 6185 243e ac10 913d 98d7 66bd
00000290: 80a5 573c 7e9e 87bd 5232 603d 69ff 293d
000002a0: bbde 04be f37a 643e 75c2 0cbe 912c 3b3e
000002b0: 3006 d43c 02b5 63bc 159f 91bd 8bcf d23d
000002c0: 9e72 afbd 7795 fabd 9b99 08bb 6918 0dbd
000002d0: 47f4 80bd fcae ccbd dcf1 843d 1410 ad3d
000002e0: 3da8 413d 1c3d d6bd 73e7 f33b 4e52 e8bd
000002f0: 25a3 763e 14a5 15bd 12bb bd3c 4c5b 123d
00000300: 060f 05b9 89e9 a23d 6a53 1d3e 468d e53c
00000310: ecdd bebd 0065 9f3c 5963 fdbd e531 1a3d
00000320: 3b6f abbc 4f0f f3bd 24fc e5bd acbb 1e3e
00000330: 363f 76bd b1e8 f1bd 8441 b33d 2a1e 55bd
00000340: a092 83bd 642b 72bd 0f0f c73d c00f 793d
00000350: fbd8 01be 3883 ad3d 70e1 b8bc 35eb 9fbc
00000360: e3c3 b63d 8f0c a93d 00b3 2bbd f165 943d
00000370: e561 693e 4bd1 c4bc 9d3a 823d 8838 0f3d
00000380: 512a bbbd cc65 52bd 7adc f4bd 09c5 e83c
00000390: 7bc3 45bd 9578 a73d 6935 d13d 0564 e6bc
000003a0: 57a1 fabb e313 ddbd 49e3 3b3d 61f3 0d3e
000003b0: 9a57 c03d fccf 27bb 9b90 62bd 5862 f6bc
000003c0: ecf4 c1bb 810f ef3d 252a de3d 6ab2 963d
000003d0: be67 c0bd 76d4 fa3b 8c00 ea3d 6dcc c43d
000003e0: 35e2 2d3e 9fde 0a3e 9d01 043e b3b4 013e
000003f0: 99af 603e 4db1 8f3d 7c80 85bd f680 e6bd

encoder.6.bias f4 [32]
0.18599838 0.11306844 0.019185264 0.015578992 0.10205029 0.11962541 -0.074979015 0.16033062
-0.08846957 -0.04888719 -0.054875232 0.033575375 0.07471259 -0.03162355 0.07613493 0.008250308
0.06936443 0.098824345 -0.005958187 -0.008733495 0.022515275 -0.013611374 0.051635955 -0.018803263
-0.06991921 -0.0741047 0.068390876 -0.040837266 0.10530636 0.054791227 0.14770113 -0.10303444
00000000: 5c76 3e3e 6d90 e73d 6a2a 9d3c 073f 7f3c
00000010: beff d03d 2bfe f43d 998e 99bd b62d 243e
00000020: 892f b5bd ef3d 48bd dac4 60bd 5586 093d
00000030: ea02 993d b287 01bd a1ec 9b3d 4d2c 073c
00000040: f00e 8e3d 6b64 ca3d e53c c3bb ef16 0fbc
00000050: f471 b83c 3e02 5fbc 3980 533d 4d09 9abc
00000060: ce31 8fbd 34c4 97bd 8410 8c3d fa44 27bd
00000070: dcaa d73d c46c 603d f73e 173e b803 d3bd

encoder.8.weight f4 [16, 32]
-0.022369334 -0.13348554 -0.023533262 0.0053589717 -0.11381132 0.06268431 0.10138112 0.035342388
-0.17589496 -0.0066340403 0.15475185 -0.14707294 0.06794856 0.038396135 0.11353948 -0.14993756
-0.017133726 -0.13491322 0.110993534 0.028508022 -0.06906543 -0.11786271 0.13327491 0.05224966
-0.005456373 -0.14383727 0.020471167 -0.081125915 -0.14357935 0.12408844 0.017092444 -0.078597
0.25761855 -0.018875036 0.19337618 -0.0916812 0.0035897056 0.07764672 -0.16608812 0.2243681
-0.012928905 -0.0144890575 0.1322344 0.29772004 0.033249848 -0.15776373 0.20901385 -0.06304214
-0.127914 0.19734015 -0.17376474 -0.0038502552 -0.03780203 -0.1391965 0.0969471 0.040629596
0.16089737 0.09887846 0.13056454 -0.119252324 -0.03218057 0.023486275 0.10705984 -0.08319489
0.06658565 -0.1013606 0.060926814 -0.0483399 -0.051932093 -0.064206734 0.07130916 0.034409046
0.050195504 -0.08387669 0.023843838 0.09066493 -0.15101635 -0.052226894 0.028298728 0.036916003
0.053529672 0.026627345 -0.11400904 -0.06406327 -0.18016721 0.06036294 0.12565467 -0.17098068
0.0449243 -0.1429959 0.13130675 0.072390415 0.034204043 0.0235777 -0.10183549 -0.122971244
-0.110159196 0.044640217 0.02574928 -0.16547202 -0.16515602 -0.10011291 -0.14052442 -0.14747909
0.17475002 -0.17475317 -0.10354577 0.00735256 0.009693133 -0.120409355 0.12048454 0.07285024
-0.058088593 -0.03008933 -0.116892174 0.14925002 0.068592414 0.18505718 0.14387925 -0.035863794
-0.12826943 -0.004633119 0.11120083 -0.04996827 0.10505443 -0.07825082 -0.14494734 -0.099112906
-0.18018077 -0.16239399 -0.0065713315 -0.093774766 -0.09086409 -0.13533702 0.14313012 -0.038540732
0.12572144 0.11993648 -0.070847206 -0.029138401 -0.20060398 -0.06967395 0.108925544 0.1526841
-0.17817092 -0.17555635 -0.03239948 -0.1917427 -0.15029849 0.15148072 0.11368896 0.12617937
0.068602316 0.023618234 -0.095531866 0.14059621 0.08621812 -0.21395372 0.06936133 0.099138975
-0.20981982 0.18845446 -0.13333793 -0.1345151 0.20524694 0.15084656 0.14685896 -0.032113586
-0.0021921243 0.0857035 -0.013286287 -0.1493652 -0.11123122 -0.09372745 0.19424005 0.06696842
-0.0666593 -0.080275126 0.070968784 -0.0934465 0.0937074 -0.14591512 -0.1174253 -0.092662126
0.092482835 0.12351162 0.079056956 0.13162662 0.11326675 0.10284364 -0.1289529 -0.069405936
-0.2529712 0.16740413 -0.069366544 0.07213144 -0.019577384 0.12121097 -0.0773324 -0.28293067
-0.003236132 -0.011079395 0.16494116 -0.24849315 0.006730024 0.074575685 0.08958203 0.011394122
-0.0120011335 0.054749407 -0.11920079 0.14182125 0.0009259024 0.086259186 0.021595782 -0.032355558
0.15272182 -0.0481001 0.119895466 0.04818408 -0.061626017 0.15405911 -0.12473589 0.054021485
0.08601526 0.15518141 0.061029628 -0.15672183 0.09981968 -0.11324878 0.0041855304 0.052612044
-0.121462405 0.021607118 -0.14347683 0.114477985 0.021673867 -0.16442406 0.26534966 0.09887608
-0.018428726 0.14928314 -0.07379862 0.026098102 -0.09813189 0.11064657 0.092392705 -0.052463118
0.22983006 0.12278362 0.12261773 -0.058170006 -0.09215751 0.09516839 0.012325911 0.08871137
00000000: e53f b7bc 6fb0 08be d4c8 c0bc 509a af3b
00000010: e915 e9bd a260 803d e8a0 cf3d 2ec3 103d
00000020: cf1d 34be 5d62 d9bb 4577 1e3e 4a9a 16be
00000030: 9d28 8b3d 4445 1d3d 6387 e83d 3b89 19be
00000040: 075c 8cbc b126 0abe 9450 e33d a889 e93c
00000050: 2d72 8dbd 0162 f1bd 3879 083e bd03 563d
00000060: 60cb b2bb 144a 13be 26b3 a73c 5825 a6bd
00000070: 7706 13be 1422 fe3d 7405 8c3c 77f7 a0bd
00000080: 94e6 833e d29f 9abc 6804 463e 5ac3 bbbd
00000090: 4441 6b3b 3e05 9f3d 0113 2abe c0c0 653e
000000a0: c2d3 53bc 8363 6dbc 7468 073e c36e 983e
000000b0: fe30 083d d18c 21be ba07 563e 3d1c 81bd
000000c0: e3fb 02be 8913 4a3e 62ef 31be 9054 7cbb
000000d0: 4dd6 1abd 8789 0ebe 338c c63d 386b 263d
000000e0: 48c2 243e ca80 ca3d b6b2 053e 903a f4bd
000000f0: c6cf 03bd 4a66 c03c 3042 db3d 1562 aabd
00000100: 0f5e 883d 2596 cfbd 658e 793d 0f00 46bd
00000110: bfb6 54bd d27e 83bd 890a 923d 80f0 0c3d
00000120: cd99 4d3d 8bc7 abbd 2754 c33c 89ae b93d
00000130: 08a4 1abe deeb 55bd bcd2 e73c 3c35 173d
00000140: ee41 5b3d 9721 da3c 927d e9bd 9b33 83bd
00000150: c17d 38be 213f 773d 9eab 003e 8f15 2fbe
00000160: 8b02 383d 846d 12be 4775 063e 6d41 943d
00000170: 8a19 0c3d 0526 c13c 208f d0bd 59d8 fbbd
00000180: 259b e1bd a9d8 363d 27f0 d23c 7f71 29be
00000190: a91e 29be ff07 cdbd a2e5 0fbe c204 17be
000001a0: abf1 323e 7ff2 32be ce0f d4bd beed f03b
000001b0: f2cf 1e3c 2e99 f6bd 99c0 f63d 8232 953d
000001c0: 4eee 6dbd e67d f6bc 2a65 efbd ffd4 183e
000001d0: 2e7a 8c3d a17f 3d3e 1555 133e eae5 12bd
000001e0: 1059 03be 6bd1 97bb 43bd e33d 87ab 4cbd
000001f0: c726 d73d f741 a0bd 136d 14be b5fb cabd
00000200: 4f81 38be 9c4a 26be 5354 d7bb fc0c c0bd
00000210: f416 babd ca95 0abe b490 123e e3dc 1dbd
00000220: 1fbd 003e 42a1 f53d 5718 91bd a8b3 eebc
00000230: 216b 4dbe 37b1 8ebd 5b14 df3d 3959 1c3e
00000240: 7072 36be 0bc5 33be 51b5 04bd 3358 44be
00000250: d9e7 19be c31d 1b3e c2d5 e83d 2a35 013e
00000260: 5f7f 8c3d 077b c13c 36a6 c3bd 74f8 0f3e
00000270: 2093 b03d af16 5bbe 500d 8e3d 6009 cb3d
00000280: 02db 56be 35fa 403e bd89 08be 54be 09be
00000290: 412c 523e 8577 1a3e 3262 163e 8989 03bd
000002a0: bea9 0fbb 5185 af3d baae 59bc 31f3 18be
000002b0: 32cd e3bd 2df4 bfbd dde6 463e bd26 893d
000002c0: ac84 88bd 4967 a4bd 1558 913d e160 bfbd
000002d0: aae9 bf3d c66a 15be ad7c f0bd a4c5 bdbd
000002e0: a467 bd3d a9f3 fc3d 9de8 a13d 21c9 063e
000002f0: 66f8 e73d b09f d23d 3b0c 04be b324 8ebd
00000300: 7185 81be fd6b 2b3e 0c10 8ebd a6b9 933d
00000310: c060 a0bc 753d f83d 7360 9ebd 4adc 90be
00000320: 4915 54bb 5a86 35bc 56e6 283e fd74 7ebe
00000330: 8887 dc3b 23bb 983d c976 b73d 69ae 3a3c
00000340: 67a0 44bc ea40 603d 8b1f f4bd 9739 113e
00000350: 42b8 723a a8a8 b03d a3e9 b03c 4387 04bd
00000360: 1c63 1c3e 9c04 45bd c18b f53d ab5c 453d
00000370: 906b 7cbd acc1 1d3e 8875 ffbd a245 5d3d
00000380: c528 b03d e0e7 1e3e 34fa 793d b07b 20be
00000390: 436e cc3d faee e7bd c626 893b ba7f 573d
000003a0: 48c1 f8bd 6901 b13c 97eb 12be 6f73 ea3d
000003b0: 658d b13c c85e 28be e9db 873e 8b7f ca3d
000003c0: d7f7 96bc aedd 183e bb23 97bd b0cb d53c
000003d0: 5ff9 c8bd ab9a e23d 6338 bd3d 91e3 56bd
000003e0: 9258 6b3e fb75 fb3d 011f fb3d ac43 6ebd
000003f0: 14bd bcbd a5e7 c23d 9ef2 493c 4fae b53d

encoder.8.bias f4 [16]
-0.122245245 0.041426476 -0.11425741 -0.09461931 0.12353945 0.031906635 0.124367386 0.13962007
-0.0028668619 -0.1830709 0.033313025 0.12559864 0.12496524 -0.072622575 -0.053664275 0.045569606
00000000: b75b fabd cfae 293d caff e9bd c5c7 c1bd
00000010: 4002 fd3d 88b0 023d 54b4 fe3d 90f8 0e3e
00000020: f6e1 3bbb f076 3bbe 3d73 083d ee9c 003e
00000030: c7ed ff3d 25bb 94bd 12cf 5bbd 32a7 3a3d

decoder.0.weight f4 [32, 16]
0.17331138 -0.21282518 0.09772581 0.01795268 0.23974627 0.025474846 0.11530739 -0.10503581
-0.06713739 -0.10162249 -0.1531201 -0.17736036 0.04449165 0.06506693 -0.21023908 -0.031430095
0.22574997 0.06159101 0.051007446 -0.0921188 0.12934926 0.22766279 0.24815378 -0.053072955
0.1296208 -0.06258518 -0.028712736 0.18957072 0.033785455 0.1448159 0.06214939 0.25799182
-0.15685785 0.023914773 0.023973256 -0.18895918 0.21036172 -0.21430635 0.22197899 0.026110336
-0.010832171 0.024297565 0.015650397 -0.11537571 -0.2343237 -0.25866696 -0.15485749 0.11316253
0.101252586 0.18770687 0.0018426472 -0.116505206 0.055182915 0.031790346 -0.067156285 -0.09328105
-0.1187614 -0.10082064 0.22945069 0.23896316 0.20106156 -0.08857907 -0.22314583 -0.1049215
0.09514734 -0.023781292 -0.05998671 0.21734093 0.1961281 0.18252143 -0.078713246 0.1275762
0.17408244 -0.14722316 -0.12079292 -0.18160677 -0.24738723 -0.21795851 0.18723628 -0.21252353
0.043040574 -0.042195924 -0.2292648 0.009494849 -0.021588862 0.16074531 0.013877959 0.21993451
-0.22776665 -0.18631127 -0.031196643 -0.11556491 -0.15813784 0.009941966 0.24416347 -0.22445776
0.19342208 0.1997276 0.18707079 -0.24782798 -0.03752914 -0.12854162 -0.13209826 -0.1978431
-0.15995923 0.09546888 0.19628027 -0.04660046 0.088721275 -0.22834873 -0.16353399 -0.16271892
0.04226446 0.025783777 0.0834181 -0.057887048 -0.034913123 0.11485824 -0.19141889 0.13589951
-0.19602835 0.0144966245 -0.17830384 -0.19335929 0.08835557 0.050899148 -0.22207767 -0.13326684
0.16579413 0.10419047 0.045032263 -0.2275269 -0.081409186 -0.072054535 0.15686586 0.05097404
0.1560939 0.12694651 0.10585107 -0.21984702 -0.000118093914 -0.21336462 0.08283496 0.11362901
0.1241734 -0.0541719 -0.037693705 -0.19263577 0.15458779 -0.15910979 -0.12942007 0.17831394
0.054539576 0.065010116 0.15482034 0.24740875 0.25331515 -0.1246324 0.2078145 -0.07353814
-0.24366817 0.14563349 -0.21054292 -0.1453934 0.22893274 -0.09860873 0.01565552 -0.020098237
0.25865623 0.071017176 -0.112670146 -0.22114736 0.21796735 -0.10381448 0.023896096 -0.0899135
0.1342319 -0.27836084 -0.12574938 0.15979058 0.22587834 0.041622758 0.11861382 -0.17907253
0.25438583 -0.016172819 -0.12880239 0.23859549 0.009536509 -0.2166055 0.2537869 0.13198057
0.09378013 -0.10274922 0.044425238 -0.13198018 0.10705952 -0.004492816 -0.03825485 0.15351589
-0.07212949 0.08980982 0.12533414 0.2536274 0.013364754 0.1443233 -0.09955258 -0.14411192
-0.1372535 -0.22061977 -0.053196575 -0.036945567 0.0023296382 -0.2339447 0.22635975 -0.22778115
0.2944764 0.16549312 0.08771585 -0.04354199 0.2323132 -0.19875446 -0.011418635 -0.16120942
0.23864216 0.11929311 -0.11788878 -0.051757425 0.20934382 -0.121259496 0.09180494 0.05767924
-0.011073651 -0.11697844 0.16447884 -0.012856798 -0.014995588 -0.042359553 -0.24343584 0.08569246
0.15634856 0.160079 -0.16541609 -0.16915256 -0.033427924 0.12865424 0.14712241 -0.21354547
-0.030809134 0.015528619 -0.18399572 -0.00037759542 -0.17209387 -0.15092075 0.0064828396 0.052402705
00000000: 8a78 313e d8ee 59be 7824 c83d 8011 933c
00000010: 0c80 753e a0b0 d03c 4826 ec3d 041d d7bd
00000020: 547f 89bd 741f d0bd 84cb 1cbe f49d 35be
00000030: e03c 363d d041 853d ea48 57be d8bc 00bd
00000040: 002b 673e db46 7c3d 2fed 503d c8a8 bcbd
00000050: 2274 043e 6f20 693e 061c 7e3e 0763 59bd
00000060: 51bb 043e a92c 80bd f936 ebbc d41e 423e
00000070: 9e62 0a3d 9f4a 143e 5c90 7e3d 8117 843e
00000080: 589f 20be eae8 c33c 9063 c43c 847e 41be
00000090: 1069 573e 2073 5bbe 764e 633e 58e5 d53c
000000a0: 6b79 31bc b00b c73c 4335 803c 1a4a ecbd
000000b0: 8df2 6fbe ff6f 84be f692 1ebe c2c1 e73d
000000c0: 845d cf3d 3b36 403e fb84 f13a 489a eebd
000000d0: 7b07 623d 9836 023d 3c89 89bd 230a bfbd
000000e0: 2d39 f3bd 0d7b cebd 1ff5 6a3e c2b2 743e
000000f0: 15e3 4d3e f268 b5bd 5780 64be 15e1 d6bd
00000100: 9cdc c23d fcd0 c2bc a0b4 75bd 9f8e 5e3e
00000110: ced5 483e e6e6 3a3e 6934 a1bd 56a3 023e
00000120: ab42 323e abc1 16be 4762 f7bd 20f7 39be
00000130: 1453 7dbe 8430 5fbe deba 3f3e c59f 59be
00000140: 504b 303d a2d5 2cbd 64c4 6abe 4890 1b3c
00000150: 20db b0bc 6b9a 243e 6160 633c 8336 613e
00000160: a93b 69be 62c8 3ebe 1a90 ffbc 4cad ecbd
00000170: e3ee 21be a1e3 223c fd05 7a3e 41d8 65be
00000180: 7010 463e 6485 4c3e 7c8f 3f3e 9ec6 7dbe
00000190: 28b8 19bd 6aa0 03be c444 07be 6297 4abe
000001a0: 5acc 23be 3085 c33d b2fd 483e 20e0 3ebd
000001b0: 80b3 b53d 40d4 69be 7475 27be ca9f 26be
000001c0: 801d 2d3d 8038 d33c 1cd7 aa3d f81a 6dbd
000001d0: 1001 0fbd cc3a eb3d 5003 44be 3e29 0b3e
000001e0: a8bb 48be 4083 6d3c 4895 36be faff 45be
000001f0: c4f3 b43d a07b 503d 5468 63be 1a77 08be
00000200: f0c5 293e d061 d53d c073 383d d0fc 68be
00000210: dcb9 a6bd 5491 93bd 72a1 203e 28ca 503d
00000220: 14d7 1f3e 44fe 013e 72c8 d83d 941f 61be
00000230: 30a9 f7b8 417c 5abe 60a5 a93d 54b6 e83d
00000240: a04e fe3d 5be3 5dbd b764 1abd 5042 45be
00000250: 434c 1e3e aded 22be b286 04be ee97 363e
00000260: e464 5f3d 0624 853d 3989 1e3e b858 7d3e
00000270: 86b2 813e 463f ffbd 53cd 543e 2a9b 96bd
00000280: 2684 79be f220 153e 9098 57be 02e2 14be
00000290: 586d 6a3e 60f3 c9bd 0140 803c 0fa5 a4bc
000002a0: 976e 843e 7471 913d 9bbf e6bd 7474 62be
000002b0: d532 5f3e b09c d4bd bfc1 c33c 9224 b8bd
000002c0: 1674 093e 5085 8ebe 72c4 00be 24a0 233e
000002d0: a74c 673e a07c 2a3d cdeb f23d ca5e 37be
000002e0: dc3e 823e dc7c 84bc c6e4 03be 6052 743e
000002f0: 053f 1c3c d5cd 5dbe 5bf0 813e ea25 073e
00000300: cc0f c03d 2f6e d2bd 3df7 353d d025 07be
00000310: 0642 db3d 7938 93bb 1eb1 1cbd 4533 1d3e
00000320: a0b8 93bd 36ee b73d 9857 003e 73db 813e
00000330: d7f7 5a3c 7dc9 133e 39e2 cbbd 1392 13be
00000340: 2e8c 0cbe 26ea 61be a7e4 59bd 3c54 17bd
00000350: d8ac 183b 338f 6fbe daca 673e 763f 69be
00000360: 9cc5 963e 0777 293e 5ea4 b33d 1659 32bd
00000370: 83e3 6d3e 4a86 4bbe 3a15 3bbc 1514 25be
00000380: 9c5e 743e f24f f43d ac6f f1bd 98ff 53bd
00000390: 3a5e 563e e656 f8bd 3a04 bc3d 1141 6c3d
000003a0: 426e 35bc 6492 efbd 246d 283e 52a5 52bc
000003b0: 0eb0 75bc 3681 2dbd 3f47 79be 877f af3d
000003c0: d619 203e c0eb 233e d662 29be 5436 2dbe
000003d0: b8eb 08bd f0bd 033e 42a7 163e aaab 5abe
000003e0: 7063 fcbc c06b 7e3c 6069 3cbe 00f8 c5b9
000003f0: 6039 30be f88a 1abe 006e d43b 38a4 563d

decoder.0.bias f4 [32]
-0.15633997 0.14836106 -0.013616244 -0.009627106 0.23915723 0.18076672 0.026804358 -0.22188076
-0.25756106 -0.08720705 0.08827626 0.10265282 0.08763769 0.11342869 -0.22057658 -0.032892466
-0.1481775 -0.020087771 -0.03846449 -0.15161759 0.09199876 -0.001299795 0.011852788 0.049689714
0.21438755 0.016870191 -0.10569449 0.09611891 -0.10090662 0.10492518 -0.2439031 0.025676183
00000000: 9617 20be f6eb 173e ab16 5fbc 02bb 1dbc
00000010: a2e5 743e e91a 393e d094 db3c b634 63be
00000020: 0bdf 83be 9c99 b2bd 2fca b43d a43b d23d
00000030: 647b b33d 4d4d e83d d4de 61be 40ba 06bd
00000040: d8bb 17be 1c8f a4bc f18c 1dbd a441 1bbe
00000050: d969 bc3d e25d aaba 3232 423c 7187 4b3d
00000060: 6988 5b3e 5b33 8a3c 5a76 d8bd fed9 c43d
00000070: 21a8 cebd 03e3 d63d bcc1 79be dc56 d23c

decoder.3.weight f4 [64, 32]
0.053712323 0.09328782 -0.038115695 -0.13568108 0.0004056646 -0.03148137 0.092704184 -0.17595728
0.073798455 0.15188155 -0.106747285 0.17211655 0.010906832 -0.11021876 0.12596427 0.10186607
0.12266325 -0.0965474 -0.05654288 -0.17184263 -0.11192128 0.06914329 0.18484452 -0.017939998
-0.12134412 0.073113896 -0.15984347 0.10390583 0.04525581 0.10607295 -0.08148387 -0.012704151
-0.06810391 -0.1134474 0.029233996 0.06526415 -0.118685946 -0.066956274 -0.07573911 0.140349
0.08405224 -0.036066074 0.20365229 0.08131303 0.037317485 0.15345484 -0.011848363 0.0022139528
-0.040132318 0.17132157 -0.08224242 0.031372186 0.0058857426 0.1732248 0.044535454 0.09181411
0.15624493 -0.056910694 0.14899085 0.1710328 -0.10565758 -0.13461363 0.15431885 0.077152364
0.13629766 0.07330759 -0.078210555 0.13714883 0.03162148 -0.1457059 -0.00440129 0.16904578
0.10301365 0.14401522 -0.034424953 0.04869352 0.023124158 0.07408635 -0.13373064 0.16143884
0.1066706 -0.029937483 -0.037435688 0.069815025 -0.20331374 0.02849306 0.047506828 0.04984036
0.06575235 -0.0043265643 0.10655185 0.042749375 -0.017108884 -0.006023914 -0.046227157 -0.07811367
-0.17438293 0.19620268 -0.008987123 -0.026000682 0.11779315 -0.11193166 0.096400775 -0.1285501
0.015450697 0.084818155 -0.05493379 0.09335231 0.0626745 0.17770252 0.074507274 0.0018943744
-0.20284691 -0.027214376 0.11215811 -0.114637695 0.028970307 -0.012315291 -0.09655446 -0.03813445
0.1747812 0.10773367 -0.16385297 0.041264143 -0.07189448 -0.10664344 0.11850737 0.14305675
-0.07956056 -0.06932794 -0.036583465 -0.03957599 -0.068163745 0.04120794 -0.11327503 -0.0470586
-0.009577808 -0.057666376 0.14734411 -0.0399937 -0.09652338 0.1058111 -0.022029314 0.08393395
0.093402155 -0.04219897 0.020513529 -0.08408909 0.16444623 0.10771253 0.06518089 0.0007376061
-0.047181673 -0.17088802 -0.037717573 -0.109784424 0.09903494 0.16775148 -0.08383735 -0.13555695
-0.10459855 0.14933673 0.07499394 -0.14144456 0.0782204 -0.013730858 0.16034153 -0.05010337
0.110968396 -0.12823631 -0.0533096 -0.05537837 0.004463752 0.0020697834 0.06012252 0.000860449
-0.061672125 -0.13250822 0.05165777 -0.109105684 -0.23116714 -0.0817512 0.17866471 -0.17901652
0.18190175 -0.12171857 -0.032251276 -0.13140957 -0.11632931 0.010735614 -0.114198044 -0.039106715
-0.05126926 0.18577665 0.11153173 -0.09093046 0.05023671 0.15813406 -0.1248762 0.06374329
-0.022219354 -0.11896255 0.024823276 0.033458702 -0.08222758 -0.15841335 0.038428403 -0.03912395
-0.10936631 0.13431679 -0.13460112 -0.102722935 0.0063383374 -0.04748169 0.00348473 -0.0932855
0.108367 -0.24375461 0.1636999 -0.03472818 -0.08977245 -0.015851708 -0.15981908 -0.041838694
0.093518905 0.09596692 -0.06982758 -0.16276784 -0.12068103 -0.13691111 0.056481667 -0.035293475
0.104194015 -0.054799844 0.19991119 0.07859396 0.011086807 0.17793658 -0.014066107 -0.04398959
0.062230974 -0.035316467 -0.051521078 -0.03417043 0.2264087 0.05740802 -0.023942925 -0.10066138
0.059387006 0.15762773 0.065154836 -0.12927265 -0.07995426 -0.09410678 -0.15693486 0.070700526
00000000: 7401 5c3d af0d bf3d 341f 1cbd fbef 0abe
00000010: 62af d439 9cf2 00bd b1db bd3d 252e 34be
00000020: a523 973d d686 1b3e 529e dabd 523f 303e
00000030: 92b2 323c 60ba e1bd c7fc 003e 289f d03d
00000040: df36 fb3d a5ba c5bd 8299 67bd 84f7 2fbe
00000050: fc36 e5bd ff9a 8d3d e247 3d3e e7f6 92bc
00000060: 4483 f8bd bdbc 953d 02ae 23be 94cc d43d
00000070: 285e 393d c63c d93d 04e1 a6bd 1225 50bc
00000080: 107a 8bbd 1c57 e8bd 227c ef3c 36a9 853d
00000090: 9e11 f3bd 5f20 89bd 1b1d 9bbd a6b7 0f3e
000000a0: 9523 ac3d 05ba 13bd 3a8a 503e 7287 a63d
000000b0: 38da 183d 4423 1d3e a31f 42bc f717 113b
000000c0: c961 24bd ec6e 2f3e b76e a8bd 1f80 003d
000000d0: 30dd c03b d861 313e cf6a 363d 0909 bc3d
000000e0: acfe 1f3e 301b 69bd 0f91 183e 3923 2f3e
000000f0: 0063 d8bd 28d8 09be c305 1e3e 0f02 9e3d
00000100: 9d91 0b3e 4a22 963d db2c a0bd be70 0c3e
00000110: 8685 013d ed33 15be b238 90bb 561a 2d3e
00000120: d2f8 d23d ba78 133e 2e01 0dbd db72 473d
00000130: e06e bd3c 96ba 973d aff0 08be 3950 253e
00000140: 1e76 da3d 743f f5bc 2a56 19bd 2efb 8e3d
00000150: 7a31 50be 476a e93c 8596 423d 6825 4c3d
00000160: 2ba9 863d dac5 8dbb db37 da3d f819 2f3d
00000170: ee27 8cbc 4164 c5bb b058 3dbd 0ffa 9fbd
00000180: 7091 32be 5be9 483e ba3e 13bc 62ff d4bc
00000190: 893d f13d 6d3c e5bd c56d c53d a3a2 03be
000001a0: ec24 7d3c 24b5 ad3d 4102 61bd 7f2f bf3d
000001b0: 7d5b 803d a6f7 353e 4597 983d a84c f83a
000001c0: 1ab7 4fbe aff0 debc 27b3 e53d 2bc7 eabd
000001d0: 2353 ed3c 13c6 49bc 58be c5bd de32 1cbd
000001e0: d8f9 323e 78a3 dc3d 13c9 27be 9704 293d
000001f0: 6a3d 93bd e067 dabd feb3 f23d 787d 123e
00000200: a6f0 a2bd cffb 8dbd 8bd8 15bd 6f1a 22bd
00000210: 6f99 8bbd a8c9 283d bdfc e7bd 85c0 40bd
00000220: 3dec 1cbc 9433 6cbd 60e1 163e 6fd0 23bd
00000230: 0dae c5bd 7db3 d83d d276 b4bc 90e5 ab3d
00000240: a149 bf3d d4d8 2cbd fd0b a83c e736 acbd
00000250: 9864 283e 6398 dc3d 8f7d 853d e85b 413a
00000260: 9241 41bd 45fd 2ebe be7d 1abd a8d6 e0bd
00000270: d5d2 ca3d 0bc7 2b3e ebb2 abbd 71cf 0abe
00000280: c437 d6bd baeb 183e 6c96 993d d8d6 10be
00000290: 0432 a03d 65f7 60bc 9230 243e 3139 4dbd
000002a0: 6643 e33d 6150 03be 2b5b 5abd 6ed4 62bd
000002b0: aa44 923b 34a5 073b 0843 763d c18f 613a
000002c0: e99b 7cbd 3cb0 07be 1997 533d cd72 dfbd
000002d0: 14b7 6cbe 2c6d a7bd e2f3 363e 1b50 37be
000002e0: 7444 3a3e 9647 f9bd ea19 04bd 3b90 06be
000002f0: 103e eebd 6ee4 2f3c aae0 e9bd 5d2e 20bd
00000300: b7ff 51bd 3c3c 3e3e bf6a e43d c039 babd
00000310: 02c5 4d3d e5ed 213e 18bf ffbd d88b 823d
00000320: 5d05 b6bc a3a2 f3bd 2f5a cb3c fe0b 093d
00000330: ef66 a8bd 1c37 22be 1a67 1d3d 6f40 20bd
00000340: 72fb dfbd 578a 093e e0d4 09be 6760 d2bd
00000350: d4b1 cf3b 297c 42bd 1160 643b 780c bfbd
00000360: 85ef dd3d cf9a 79be f2a0 273e 233f 0ebd
00000370: 9eda b7bd 71db 81bc 9da7 23be 0d5f 2bbd
00000380: d786 bf3d 4e8a c43d c301 8fbd 9dac 26be
00000390: 9e27 f7bd 6d32 0cbe 5259 673d e48f 10bd
000003a0: ac63 d53d cd75 60bd 85b5 4c3e dff5 a03d
000003b0: 70a5 353c 0235 363e 8775 66bc 6e2e 34bd
000003c0: e8e5 7e3d 00a8 10bd c407 53bd 4bf6 0bbd
000003d0: afd7 673e ac24 6b3d f423 c4bc 8e27 cebd
000003e0: ca3f 733d 2a69 213e e66f 853d 0d60 04be
000003f0: 0fbf a3bd 0ebb c0bd 88b3 20be 70cb 903d

decoder.3.bias f4 [64]
-0.010736382 0.027089782 -0.22343005 -0.049670324 -0.15638529 0.10002853 -0.023105625 -0.0066783144
-0.00034502964 0.1447468 0.015563044 0.11162684 -0.1110331 0.09574641 0.14497715 -0.030183343
0.111223385 -0.17039143 0.0810808 0.011112138 0.008742415 -0.049319103 -0.03212291 0.14370193
0.017594267 -0.03298963 -0.00025531638 0.09458998 -0.059660524 0.13695636 0.13037439 0.07208836
0.04313181 0.025612148 -0.068479195 0.008342981 0.0055223587 0.10624925 0.0039920714 0.09058607
0.047226455 -0.24990691 0.03485237 -0.03273749 0.025882067 -0.08089616 0.031905234 -0.086327456
0.13195184 0.010176954 0.0013721182 -0.04220921 -0.21680969 0.116253644 0.01096606 -0.06917299
-0.0074004713 -0.023500582 0.026109418 0.14722374 -0.088675864 -0.12803723 0.064918086 0.015133969
00000000: a6e7 2fbc 64eb dd3c d9ca 64be 1c73 4bbd
00000010: 7723 20be c2db cc3d 0248 bdbc c3d5 dabb
00000020: 18e5 b4b9 8138 143e 23fc 7e3c 9d9c e43d
00000030: 5265 e3bd b216 c43d e474 143e 0f43 f7bc
00000040: 16c9 e33d 177b 2ebe b10d a63d af0f 363c
00000050: 593c 0f3c d402 4abd 5093 03bd 9926 133e
00000060: da21 903c 2220 07bd fcdb 85b9 64b8 c13d
00000070: 985e 74bd 4a3e 0c3e dd80 053e 10a3 933d
00000080: fbaa 303d 91d0 d13c d23e 8cbd 00b1 083c
00000090: e7f4 b43b 3599 d93d eccf 823b 3185 b93d
000000a0: 8770 413d 99e7 7fbe 5cc1 0e3d bf17 06bd
000000b0: a106 d43c e3ac a5bd 10af 023d 73cc b0bd
000000c0: 621e 073e 3dbd 263c a6d8 b33a 91e3 2cbd
000000d0: 5c03 5ebe 6416 ee3d fdaa 333c 92aa 8dbd
000000e0: a77f f2bb 4b84 c0bc 6be3 d53c d2c1 163e
000000f0: b19b b5bd 311c 03be c6f3 843d 77f4 773c
