LSTM/lstm_model.pth (torch, 141346 bytes, 10 tensors)

lstm1.weight_ih_l0 f4 [200, 3]
0	0x3db0f11f	0.0863974
1	0xbd886001	-0.06658936
2	0x3da35805	0.07975773
3	0xbdd9a353	-0.10626855
4	0x3c54ab5d	0.012980309
5	0x3e25a6c4	0.16176897
6	0x3d41621b	0.0472127
7	0xbd511666	-0.05104675
8	0x3df3878c	0.11891088
9	0x3d91fdf8	0.07128519
10	0x3d4c3743	0.04985739
11	0xbd7a9dc6	-0.06118562
12	0xbd90dd52	-0.070734635
13	0x3e18a93e	0.14908311
14	0xba54ac49	-0.00081128307
15	0xbd137f3c	-0.036010012
16	0x3e1c26c1	0.15249158
17	0xbd4ae8a7	-0.04953828
18	0x3ddc1748	0.10746628
19	0x3d27df47	0.04098442
20	0xbdfdd52d	-0.12394176
21	0xbe06f61c	-0.13179821
22	0x3dadbed0	0.0848366
23	0xbd7133be	-0.058887236
24	0xbd544094	-0.0518194
25	0xbda235e7	-0.07920437
26	0xbc84032c	-0.016114794
27	0x3d0af9ea	0.033929743
28	0xbb29d1a5	-0.0025912311
29	0x3d279233	0.04091091
30	0xbbfe1920	-0.00775446
31	0x3d805f80	0.06268215
32	0xbd89596e	-0.067065105
33	0x3da1b14d	0.078951456
34	0x3d85fb0b	0.06542023
35	0x3dc0148f	0.09378921
36	0x3d0ca109	0.034333263
37	0xbdc45be1	-0.09587837
38	0xbdc8255a	-0.09772749
39	0xbc75fa66	-0.015013313
40	0x3dbcaa22	0.09212138
41	0xbe10714c	-0.1410572
42	0x3dea6dfb	0.11446758
43	0x3d84364b	0.06455668
44	0x3d2b330f	0.04179674
45	0xbd8335cd	-0.06406746
46	0xbd32a717	-0.04361638
47	0xbda374f9	-0.07981295
48	0x3d88c06d	0.06677327
49	0xbdeb905a	-0.11502142
50	0x3e0b407a	0.13598815
51	0x3b7914e9	0.0038006848
52	0x3dd19a04	0.10234454
53	0x3e07c638	0.13259208
54	0xbc78ebe0	-0.015192956
55	0xbc952cae	-0.018209781
56	0x3dc454e4	0.09586504
57	0xbdea86e7	-0.11451512
58	0x3dbf2dcf	0.09334909
59	0xbced7a9b	-0.028989127
60	0x3d8a82ee	0.06763254
61	0xbdd4c9b6	-0.10390036
62	0xbd2a2e60	-0.041548133
63	0xbd965195	-0.07339779
64	0xbda8344a	-0.08213098
65	0x3c6e8ba7	0.014559663
66	0xbdc03237	-0.09384578
67	0x3e267745	0.16256435
68	0x3d7bb5e7	0.061452772
69	0x3bfb898d	0.0076763094
70	0x3dbc15ef	0.09183871
71	0x3de80afb	0.11330219
72	0xbcedbbe4	-0.029020257
73	0xbe0c318f	-0.1369078
74	0xbd803bab	-0.06261381
75	0xbd65518a	-0.055985965
76	0xbcf517b8	-0.029918537
77	0xbdc221b9	-0.09479088
78	0xbd9f2946	-0.07771544
79	0x3db05393	0.086096905
80	0x3d1fd90e	0.03902536
81	0x3dd8c9ca	0.10585363
82	0x3e1f47ee	0.15554783
83	0xbd99976a	-0.07499583
84	0x3df2eb50	0.118612885
85	0xbd45019f	-0.04809725
86	0x3d5f086f	0.054451402
87	0xbdd6773f	-0.10471963
88	0x3ddf9d53	0.10918679
89	0x3dbe4c3b	0.092918836
90	0xbdc87a79	-0.09788985
91	0x3df73abc	0.120717496
92	0xbcedec6d	-0.0290434
93	0x3df29cef	0.11846339
94	0xbd3bea35	-0.045877654
95	0x3d40f2c2	0.047106512
96	0x3db563a7	0.08856898
97	0x3e0be676	0.13662133
98	0x3d7449e1	0.05964077
99	0xbe0698c5	-0.13144214
100	0xbca9314c	-0.02065339
101	0x3c90a6e1	0.017657699
102	0x3d211951	0.039330784
103	0x3de6ab15	0.112631
104	0x3de88c79	0.11354918
105	0x3d9beb05	0.07613186
106	0x39a754b3	0.00031915828
107	0xbde2ed8b	-0.11080464
108	0xbc3aea4f	-0.011408403
109	0xbd7c41f5	-0.06158634
110	0xbdc7154a	-0.097208574
111	0xbcab26f1	-0.020892592
112	0xbb6f958c	-0.0036557643
113	0xbe1b2bd2	-0.15153435
114	0xbd0d86bb	-0.034552317
115	0x3dee5653	0.11637559
116	0x3d6dc42a	0.058048405
117	0x3cddf1e2	0.027092878
118	0x3db0e109	0.08636672
119	0x3d61738a	0.055041827
120	0x3e0207eb	0.12698333
121	0x3e099160	0.13434362
122	0xbd203f5a	-0.039122917
123	0x3de251e2	0.11050774
124	0x3e094b0b	0.13407533
125	0x3dee03d8	0.11621827
126	0xbc4361d0	-0.011925176
127	0x3e36a37e	0.17835805
128	0x3e014dd2	0.12627342
129	0xbdd363ae	-0.10321747
130	0xbcc3d208	-0.023903862
131	0xbe0046d9	-0.12527026
132	0xbde277e5	-0.11058024
133	0x3d2d4cb8	0.042309493
134	0xbcefdd8e	-0.02928045
135	0xbde4b99f	-0.11168217
136	0x3e0847b7	0.13308607
137	0x3d4d9317	0.050189104
138	0xbd887f18	-0.06664866
139	0xbd865c8a	-0.06560619
140	0xbb91d624	-0.0044505764
141	0x3d663acf	0.056208428
142	0x3da9f11f	0.08297943
143	0xbdda0194	-0.10644832
144	0xbcd06be7	-0.025442077
145	0x3dc01804	0.093795806
146	0x3c8ca800	0.017169952
147	0xbd6cdecc	-0.057829663
148	0x3dac1df2	0.08404149
149	0xbc8d1084	-0.01721979
150	0x3cd676bc	0.026179664
151	0x3c99f9b2	0.018795822
152	0x3e2a24e2	0.16615632
153	0xbd9bddf4	-0.076106936
154	0x3bdf9174	0.0068227593
155	0x3d9a53bb	0.075355016
156	0xbdf1e7eb	-0.11811813
157	0x3d4c554f	0.049886044
158	0xbd92e1eb	-0.07171997
159	0x3dba4fbb	0.09097239
160	0x3e1971b3	0.14984779
161	0x3d0ef88c	0.034905
162	0xbcecf9dd	-0.028927738
163	0x3c6f506f	0.014606579
164	0xbd43a324	-0.047763005
165	0x3dc2d124	0.09512547
166	0x3e25b7d0	0.161834
167	0x3d14dc3c	0.036342844
168	0xbe1fc881	-0.1560383
169	0x3d448c21	0.0479852
170	0xbdbdf2a9	-0.092747994
171	0xbd416d50	-0.04722339
172	0x3d1f7cbf	0.038937327
173	0x3dc320ce	0.095277414
174	0xbdfc8721	-0.12330461
175	0x3dcaf45d	0.0990989
176	0xbd80b7c4	-0.062850505
177	0xbcba2b74	-0.022725798
178	0xbd46deec	-0.04855244
179	0xbdc5b3c0	-0.09653425
180	0xbdc19f0c	-0.09454164
181	0xbd2e541e	-0.04256069
182	0x3df24f0a	0.11831482
183	0x3d85a4d0	0.06525576
184	0x3e226ca7	0.1586176
185	0x3d5416fe	0.05177974
186	0xbdf8eb45	-0.12154249
187	0x3d098e27	0.033582833
188	0x3c31f9cb	0.010862778
189	0xbcfb5758	-0.030681297
190	0x3d3c774b	0.046012204
191	0xbd715ac4	-0.05892445
192	0x3dc53fe0	0.09631324
193	0xbc097866	-0.008390522
194	0xbd4ee409	-0.05051044
195	0x3c324903	0.010881665
196	0x3d4762ad	0.04867809
197	0x3abd62b5	0.0014448973
198	0xbd144284	-0.036196247
199	0xbe227927	-0.15866528
200	0xbc0c17d2	-0.008550601
201	0x3dc7400f	0.09729015
202	0x3d2c1342	0.042010553
203	0x3dae5bab	0.08513578
204	0xbd0aef02	-0.03391934
205	0xbdfa8fc7	-0.122344546
206	0xbd2cd2b3	-0.042193126
207	0x3c3435af	0.010999127
208	0xbbf2cc74	-0.0074096266
209	0xbdbd593f	-0.09245538
210	0xbe1cba3c	-0.15305418
211	0x3ca6b34a	0.020349164
212	0x3dd6c6c4	0.1048713
213	0x3c525c08	0.012839325
214	0x3e098399	0.13429107
215	0xbdc1f78e	-0.094710454
216	0xbdc86266	-0.09784393
217	0x3e048655	0.12941869
218	0xbcae261d	-0.021258408
219	0xbbc5556b	-0.0060221455
220	0x3dd92a88	0.10603815
221	0xbe03ba64	-0.12864071
222	0xbdc6fc13	-0.09716048
223	0x3d623744	0.055228487
224	0x3dc87f2c	0.09789881
225	0xbe172e66	-0.14763793
226	0x3d8faae6	0.07015018
227	0xbb9931e7	-0.0046751383
228	0xbde68b11	-0.112569936
229	0xbd83723e	-0.06418274
230	0x3dc92954	0.09822336
231	0x3aa26d0a	0.0012392115
232	0x3dc2274c	0.094801515
233	0x3e232ad8	0.15934312
234	0xbdd5f9ae	-0.10448013
235	0x3bf48d7b	0.007463155
236	0x3ceaed03	0.02867747
237	0xbcda1689	-0.026622074
238	0x3ca55406	0.020181667
239	0x3df41e91	0.119198926
240	0x3d7f9f1f	0.06240761
241	0x3e00d400	0.12580872
242	0x3dbb199f	0.09135746
243	0xbdf2e397	-0.118598156
244	0xbd59c919	-0.053170297
245	0x3d942451	0.07233489
246	0x3d3bb151	0.0458234
247	0xbd140bef	-0.036144193
248	0xbdbb936d	-0.091589786
249	0x3dc50540	0.09620142
250	0x3d80929e	0.06277965
251	0x3e0d71b8	0.13812912
252	0x3de52760	0.11189151
253	0xbd17e697	-0.037085142
254	0xbdb58d14	-0.08864799
255	0x3da185b5	0.07886831

lstm1.weight_hh_l0 f4 [200, 50]
0	0x3d47956a	0.048726477
1	0x3ded7a8c	0.115956396
2	0xbd6b2463	-0.057407748
3	0xbd8b60ec	-0.06805596
4	0xbcbbe84e	-0.02293792
5	0xbddbf0fc	-0.107393235
6	0xbd3eafbd	-0.046554316
7	0xbddaf34f	-0.10690939
8	0x3cf205f8	0.029543862
9	0x3d1a8a7c	0.037729725
10	0xbd5082b4	-0.0509059
11	0x3d9eec8b	0.07759961
12	0x3e0428f1	0.12906243
13	0xbd8a90eb	-0.06765922
14	0xbda0e8bb	-0.0785689
15	0xbde05398	-0.10953444
16	0xbd325c4a	-0.043545045
17	0x3d588e48	0.052870065
18	0x3d991ecc	0.07476577
19	0x3e0fab92	0.14030293
20	0x3d4abd16	0.049496733
21	0x3e1db7aa	0.15402094
22	0x3cf05041	0.029335143
23	0xbd94cff8	-0.072662294
24	0x3de25ffd	0.110534646
25	0xbdbdb1fd	-0.09262464
26	0xbd84b676	-0.06480114
27	0xbc17eb65	-0.009272431
28	0xbc347d2a	-0.01101617
29	0xbc251b89	-0.010077366
30	0xbbc8f69c	-0.0061329138
31	0xbd078f91	-0.0330959
32	0xbd82ee36	-0.063930914
33	0x3da4232d	0.08014522
34	0x3d8cb738	0.06870884
35	0x3d399e0c	0.04531674
36	0xbd28224e	-0.04104834
37	0xbc8ac6b4	-0.016940452
38	0x3dea02d7	0.11426323
39	0x3d8963ee	0.06708513
40	0x3dd0b595	0.10190884
41	0x3dc1a0fc	0.094545335
42	0x3e0b58bf	0.13608073
43	0xbdedec74	-0.116173655
44	0xbdd3a5a2	-0.10334326
45	0xbd8350eb	-0.06411918
46	0xbd400387	-0.046878364
47	0xbde66388	-0.11249453
48	0xbc649e83	-0.013953808
49	0xbd02d9ed	-0.03194611
50	0x3dae8bd9	0.085227676
51	0x3e0d7b6c	0.13816613
52	0x3d805707	0.06266599
53	0xbdb81b84	-0.08989623
54	0x3e003bb1	0.1252277
55	0xbe0a20ed	-0.13489123
56	0xbca86e52	-0.020560417
57	0xbced5253	-0.02896992
58	0x3cdf0fe5	0.027229259
59	0x3e04f8fa	0.12985602
60	0x3d92d1f3	0.07168951
61	0x3cdca5f1	0.026934596
62	0xbdc8fc1c	-0.09813711
63	0x3de5fb9f	0.112296335
64	0x3d9b5f05	0.07586483
65	0x3d312cd3	0.04325564
66	0xbd22182f	-0.039573845
67	0x3d3f6809	0.046730075
68	0xbd9d4605	-0.07679371
69	0x3d86863d	0.06568573
70	0xbbb9eaab	-0.0056737266
71	0x3d941558	0.072306335
72	0x3c960982	0.01831508
73	0x3d7d9cab	0.06191699
74	0x3dbbc39a	0.091681674
75	0xbdcb8103	-0.099367164
76	0xbdd0326d	-0.10165868
77	0x3e118131	0.14209439
78	0x3e1d6da5	0.15373857
79	0xbd999d04	-0.075006515
80	0x3d105c6d	0.035244394
81	0x3c8e5ec7	0.017379178
82	0x3d3ea58a	0.04654459
83	0x3dcf7483	0.10129645
84	0xbe12863e	-0.14309022
85	0x3dc342fd	0.095342614
86	0x3cb2128c	0.02173736
87	0xbd37223c	-0.044710383
88	0xbdf44a94	-0.11928287
89	0xbdbf2743	-0.093336605
90	0xbd0f2fe4	-0.03495778
91	0xbe1b1adc	-0.15146965
92	0x3db4bed0	0.08825457
93	0x3c91666b	0.017749032
94	0xbc16dbcf	-0.00920768
95	0x3d177c13	0.03698356
96	0xbe1d5fda	-0.15368596
97	0xbdd79147	-0.10525756
98	0xbd35a29a	-0.044344522
99	0x3d7447dd	0.059638847
100	0x3dc64200	0.09680557
101	0xbc9070c4	-0.017631896
102	0x3d31d788	0.043418437
103	0xbd7d577d	-0.061851013
104	0xbdcd9d26	-0.10039739
105	0xbdf1a7f1	-0.117996104
106	0xbdaf14f6	-0.0854892
107	0xbdc3adb3	-0.09554615
108	0xbd8ac814	-0.06776443
109	0xbd91d1cc	-0.07120094
110	0x3de92b7b	0.11385246
111	0xbe01a2b4	-0.12659723
112	0xbd8642a2	-0.06555678
113	0x3d164379	0.03668544
114	0xbd553843	-0.05205561
115	0x3d057391	0.032580916
116	0xbe17509f	-0.14776848
117	0x3d502bd5	0.05082305
118	0x3d8b8b66	0.068136975
119	0x3d1bd358	0.03804335
120	0xbbf40d1c	-0.007447852
121	0xbc1d2f34	-0.009593774
122	0xbda50ea9	-0.08059437
123	0xbd67cf3d	-0.056594122
124	0xbd88ad65	-0.066736974
125	0xbd1706c7	-0.036871698
126	0x3b077482	0.002066881
127	0xbd6d4e7e	-0.057936184
128	0x3dea7ec6	0.11449961
129	0x3d141acd	0.03615837
130	0xbc843ec6	-0.016143214
131	0x3d5df5e2	0.05418957
132	0xbd61ac4c	-0.055095956
133	0x3d8ce8c1	0.06880332
134	0xbdbd48c5	-0.09242395
135	0x3ccf429b	0.025300315
136	0xbda4895a	-0.0803401
137	0xbd42b708	-0.047537833
138	0xbda9edbc	-0.08297297
139	0xbe0139b0	-0.12619662
140	0x3ca798b2	0.020458553
141	0xbd0bbdd1	-0.03411657
142	0x3d3e0ebc	0.04640077
143	0xbde25304	-0.1105099
144	0xbd6e523d	-0.058183897
145	0xbcc22ec9	-0.02370395
146	0x3cdb8ae4	0.026799627
147	0xbde0d94e	-0.109789476
148	0xbd9d22f9	-0.07672686
149	0x3c087811	0.008329407
150	0x3d98acf8	0.07454866
151	0xbc9563f3	-0.018236136
152	0xbdcf1ded	-0.1011313
153	0x3dacde81	0.08440877
154	0x3dcf26d7	0.1011483
155	0xbcf7b051	-0.030235441
156	0x3df77255	0.12082354
157	0x3d10c0cf	0.035340127
158	0x3da4026a	0.08008273
159	0x3da3636d	0.07977948
160	0x3d951b9d	0.072806574
161	0xbe0219eb	-0.127052
162	0xbd0afad1	-0.033930603
163	0x3d3f80ad	0.046753574
164	0x3dea0586	0.11426835
165	0x3e00ac6e	0.12565777
166	0x3d12a8f6	0.035805665
167	0xbdc560e0	-0.09637618
168	0x3d3ba861	0.045814876
169	0xbd947166	-0.072481915
170	0xbdbd8c26	-0.09255247
171	0x3d878a5d	0.066181876
172	0x3cbb4265	0.022858808
173	0x3d384c13	0.044994425
174	0xbd378183	-0.044801246
175	0x3c558e13	0.013034361
176	0xbd9c3466	-0.07627182
177	0xbe052a49	-0.13004412
178	0x3d1c164e	0.03810721
179	0xbd817ca1	-0.06322599
180	0xbd196f85	-0.03745987
181	0x3d6bbd84	0.057553783
182	0x3dccbfc3	0.09997513
183	0xbdf25830	-0.11833227
184	0xbd3314a2	-0.04372085
185	0xbc4fd569	-0.012685158
186	0xbdd20026	-0.102539346
187	0x3ad17c6c	0.0015982515
188	0xbd367a80	-0.04455042
189	0xbc1271e9	-0.008938291
190	0xbd3331fb	-0.043748837
191	0xbdb33398	-0.08750075
192	0x3da1d13d	0.07901237
193	0x3dd6ef5d	0.10494874
194	0xbda0dd97	-0.07854765
195	0x3d2dabe1	0.042400245
196	0x3b06db37	0.002057744
197	0xbdac9226	-0.08426313
198	0x3dc732e5	0.09726504
199	0xbb617193	-0.003439997
200	0xbc8fe284	-0.017564066
201	0xbdbd5b02	-0.09245874
202	0xbdd89253	-0.10574784
203	0x3e0ebd75	0.1393946
204	0xbd4a131f	-0.04933464
205	0xbdd3c4d6	-0.10340278
206	0xbd9f06f4	-0.07764998
207	0x3b8ea966	0.00435369
208	0xbd3447d7	-0.044013824
209	0x3c9b65f4	0.018969513
210	0xbd6bd98b	-0.057580512
211	0x3db4d053	0.08828797
212	0xbb6a790e	-0.003577772
213	0x3d80cf3b	0.06289526
214	0x3d8c0c60	0.06838298
215	0xbdd41216	-0.10355012
216	0x3dcd6331	0.10028685
217	0x3d8e85b2	0.06959094
218	0x3d2abdce	0.041684918
219	0x3e17e8b0	0.14834857
220	0x3df48467	0.11939316
221	0xbdc35ce7	-0.09539204
222	0x3cd20f34	0.025642015
223	0x3b915722	0.004435436
224	0x3d98bdb6	0.074580595
225	0xbcbfba93	-0.023404395
226	0xbddbbd04	-0.10729411
227	0x3d0cfa38	0.034418315
228	0xbdad81f5	-0.08472053
229	0xbdc8f568	-0.098124325
230	0xbd7d032c	-0.061770603
231	0x3d1a285b	0.037636142
232	0xbdc86aaf	-0.09785973
233	0xbda389f9	-0.079853006
234	0xbe2e0094	-0.16992408
235	0xbe23aa68	-0.15982974
236	0x3c1c2dcf	0.009532406
237	0x3e00e036	0.1258553
238	0xbd235292	-0.039873667
239	0xbd8a29f2	-0.06746282
240	0xbc5e9659	-0.01358565
241	0xbd28c0ae	-0.04119938
242	0x3e098a7b	0.13431732
243	0x3daaa719	0.083326526
244	0xba7d60ab	-0.0009665589
245	0x3d22943c	0.03969215
246	0xbc3ee0b9	-0.011650258
247	0x3d79b8f7	0.06096741
248	0x3db57184	0.08859542
249	0x3dda3630	0.10654867
250	0x3e0a2860	0.13491964
251	0x3c34d616	0.01103737
252	0xbddd6ab4	-0.10811368
253	0xbc90db18	-0.017682597
254	0x3d0236d3	0.031790566
255	0xbda76975	-0.08174411

lstm1.bias_ih_l0 f4 [200]
0	0xbd9d8167	-0.07690697
1	0x3e079504	0.13240439
2	0x3e0f8503	0.14015584
3	0x3e0672ec	0.13129777
4	0x3e0e025b	0.13868086
5	0xbd4b2d80	-0.04960394
6	0xbdac0ed2	-0.08401264
7	0xbbb90434	-0.005646253
8	0x3d15249a	0.03641186
9	0xbd708ddc	-0.058729038
10	0x3d9ff95d	0.07811234
11	0x3d6844fc	0.056706414
12	0xbd1a4848	-0.03766659
13	0x3e0278a5	0.12741335
14	0xbc790752	-0.015199499
15	0x3e2299d9	0.15879
16	0x3cf9d05a	0.030494858
17	0x3e120164	0.14258343
18	0x3e0cebaf	0.13761781
19	0x3b839a33	0.0040161847
20	0xbd1541fc	-0.03643988
21	0xbd5f243e	-0.054477923
22	0x3d108841	0.03528619
23	0x3cec1840	0.028820157
24	0xbc19f90d	-0.009397757
25	0x3e0fb6fc	0.14034647
26	0x3e0d74d2	0.13814095
27	0x3d2129ce	0.03934651
28	0xbc9c6902	-0.01909304
29	0xbda086fb	-0.078382455
30	0x3e1bf30c	0.15229434
31	0xbd2ccdde	-0.042188518
32	0x3cbf1f64	0.023330398
33	0xbd5d8f09	-0.054091487
34	0x3e2b4f33	0.16729431
35	0xbc96017a	-0.018311251
36	0x3df23e92	0.118283406
37	0xbdd71021	-0.10501123
38	0x3cdcc47b	0.026949158
39	0x3d45ced2	0.048292942
40	0xbe049c07	-0.12950145
41	0x3e16508c	0.14679164
42	0x3e19453a	0.14967814
43	0xbd9c12de	-0.07620786
44	0x3d99a21e	0.075016245
45	0xbd7fec87	-0.06248143
46	0x3c6f6a38	0.014612727
47	0xbda877e8	-0.08225995
48	0x3d4ff475	0.05077024
49	0x3d21d2d1	0.03950769
50	0x3d778429	0.060428772
51	0x3dd7b12a	0.10531838
52	0xbc120105	-0.008911376
53	0xbde1ba47	-0.11021858
54	0x3d7bc83f	0.061470266
55	0xbd77ea1f	-0.06052601
56	0x3e0435b9	0.12911119
57	0xbe116f4f	-0.14202617
58	0x3e08c771	0.13357331
59	0x3e15a3ab	0.14613216
60	0xbdd6c3d1	-0.10486568
61	0xbd1035c7	-0.035207536
62	0xbb505b56	-0.0031792722
63	0xbdcac18b	-0.09900197
64	0x3de6a7a3	0.11262443
65	0x3d8c76fc	0.06858632
66	0xbdd562be	-0.10419224
67	0x3b6d6b37	0.0036227235
68	0x3e0c6476	0.13710198
69	0xbd5d2ff1	-0.0540008
70	0x3d059b3b	0.032618742
71	0x3ded2e35	0.11581079
72	0x3b14ce70	0.0022706054
73	0xbe232ba4	-0.15934616
74	0xbd2c6ef2	-0.042097993
75	0x3cee48fe	0.02908754
76	0xbc892de9	-0.016745524
77	0xbd3a0514	-0.045415
78	0x3d6d520e	0.05793958
79	0x3d96f907	0.07371717
80	0xbd39e47f	-0.045383926
81	0xbd5a2060	-0.05325353
82	0x3ce50f96	0.027961534
83	0x3db0668a	0.08613308
84	0xbd18a2fa	-0.0372648
85	0x3dd921f3	0.106021784
86	0x3dd298ae	0.102830276
87	0xbccabf29	-0.024749355
88	0x3d75b255	0.059984524
89	0xbbb19f46	-0.005420598
90	0x3b59eb17	0.0033251697
91	0xbdf0b89d	-0.11753962
92	0xbd9cbe7a	-0.07653518
93	0x3e12aa84	0.14322859
94	0x3d0ff22a	0.035143055
95	0x3d208c18	0.039196104
96	0xba0cbc3f	-0.0005368627
97	0xbd690386	-0.056888126
98	0xbcd83901	-0.02639437
99	0x3e09242a	0.13392702
100	0x3d61d69d	0.05513631
101	0x3d62f2d6	0.055407368
102	0xbdb03c76	-0.08605282
103	0x3d1cb15b	0.038255077
104	0xbd3f01ff	-0.046632763
105	0xbdb9a19b	-0.09064027
106	0xbd9bdc21	-0.07610346
107	0xbd8b974e	-0.068159685
108	0x3cc5cc1f	0.024145184
109	0x3dbce6ca	0.09223707
110	0x3e1a2c4f	0.15055965
111	0x3d9c2787	0.07624727
112	0x3e188c26	0.14897212
113	0x3d8a57ac	0.06755003
114	0x3dd5807e	0.104248986
115	0x3e2eba1c	0.17063183
116	0x3d42b702	0.04753781
117	0xbe141be7	-0.14463769
118	0xbdb4688a	-0.08809002
119	0x3d8c8f94	0.06863323
120	0x3cbdb5e2	0.023158018
121	0x3d0cc58f	0.034368094
122	0xbdf447e9	-0.11927778
123	0xbda6dc21	-0.08147455
124	0x3da0b510	0.07847035
125	0xbdf8787e	-0.12132357
126	0x3e05431a	0.13013878
127	0x3e09bec4	0.13451678
128	0x3d688e4b	0.056776326
129	0xbe0f63fe	-0.14002988
130	0x3e28ad46	0.16472349
131	0xbd893bff	-0.067008965
132	0xbdc85f23	-0.09783771
133	0xbde65ccb	-0.112481676
134	0xbd3b23c7	-0.045688417
135	0xbc30304d	-0.010753703
136	0x3c45838f	0.012055292
137	0xbdb2af76	-0.08724873
138	0x3d209c53	0.039211582
139	0xbd321a95	-0.04348238
140	0xbcf3d35e	-0.029763874
141	0xbd47b55c	-0.048756942
142	0xbe0113fb	-0.12605278
143	0xbdd92069	-0.10601885
144	0x3cb25ebc	0.021773688
145	0xbcddce68	-0.027075961
146	0xbd935078	-0.071930826
147	0x3be39ba8	0.006946046
148	0xbd700e79	-0.058607552
149	0x3e27c79b	0.16384737
150	0x3d14197c	0.036157116
151	0xbcd07d3c	-0.025450341
152	0x3df9163f	0.12162446
153	0x3d8f5d0a	0.07000168
154	0x3dc0e33f	0.09418344
155	0x3de9596d	0.1139401
156	0x3ce278cc	0.027645491
157	0x3cf61e19	0.030043649
158	0xbd0feed0	-0.03513986
159	0x3d8d4be8	0.068992436
160	0xbd81e708	-0.06342894
161	0x3d1ef619	0.038808916
162	0x3cdfba7e	0.027310606
163	0xbcff724d	-0.031182433
164	0x3c97dfb6	0.01853929
165	0x3de6edd0	0.11275828
166	0x3da214eb	0.07914146
167	0xba7337eb	-0.0009278047
168	0x3df4ca3d	0.119526364
169	0xbcebb71a	-0.028773833
170	0x3c82bb8b	0.015958568
171	0xbc9546e6	-0.018222284
172	0xbd498eb8	-0.049208373
173	0x3e001ddd	0.12511392
174	0xbdf6335b	-0.12021514
175	0xbdd2abb9	-0.1028666
176	0xbca02fd8	-0.019554064
177	0xbd5ccc5f	-0.05390584
178	0xbe07c0aa	-0.1325709
179	0xbd866bc1	-0.06563521
180	0xbdd4529a	-0.103673175
181	0xbd6237b9	-0.055228923
182	0xbd836432	-0.06415595
183	0x3d37cc3b	0.044872504
184	0x3e234368	0.15943682
185	0x3d3e0deb	0.046399992
186	0x3dafd74f	0.08585989
187	0xbcbcd84b	-0.023052355
188	0xbd4d31c4	-0.05009629
189	0x3dde33f6	0.108497545
190	0x3e0412cb	0.12897794
191	0x3d23b18a	0.039964236
192	0x3db18aff	0.086690895
193	0x3daa88d5	0.0832688
194	0xbdbd5dc5	-0.09246401
195	0x3db74479	0.08948607
196	0xbdffbfd0	-0.12487757
197	0x3e08c3e2	0.13355973
198	0x3d8e7a3a	0.069569066
199	0xbc9ef10d	-0.019402051

lstm1.bias_hh_l0 f4 [200]
0	0xbda01e54	-0.07818285
1	0x3cc6a74f	0.0242497
2	0x3d3f7ec2	0.046751745
3	0xbdd607c5	-0.10450701
4	0x3daefe7d	0.085446335
5	0xbd011949	-0.031518254
6	0x3d07c7f1	0.033149663
7	0xbd4583e0	-0.04822147
8	0xbdd90cdc	-0.10598156
9	0x3c65c12b	0.014023106
10	0x3e1ddeb8	0.15416992
11	0x3ca5c2b9	0.020234453
12	0xbda237c8	-0.07920796
13	0xba6b6ec4	-0.0008981044
14	0xbb9e43ac	-0.0048298445
15	0x3db45637	0.08805507
16	0xbda99d98	-0.08282012
17	0x3da0504e	0.07827817
18	0x3e0376ed	0.12838335
19	0x3c2cb357	0.010540805
20	0x3e06acbc	0.1315183
21	0x3cc177c0	0.023616672
22	0xbd771bbb	-0.06032918
23	0x3d155342	0.036456354
24	0xbca78b6a	-0.02045222
25	0xbcd197a8	-0.02558501
26	0xbcdece68	-0.027198032
27	0xbdd84091	-0.1055919
28	0xbd723ca0	-0.059139848
29	0xbdd818f4	-0.105516344
30	0x3d1810fb	0.03712557
31	0x3ca53c5f	0.020170389
32	0x3db41fd3	0.087951325
33	0xbdb637bf	-0.088973515
34	0x3dc35078	0.095368326
35	0x3dd28362	0.102789655
36	0x3ac3a7c9	0.0014927323
37	0x3d7f02f9	0.062258694
38	0x3e291f3c	0.16515821
39	0xbd784c37	-0.06061956
40	0xbd19b95b	-0.037530284
41	0x3daf4cd7	0.08559578
42	0xbde96ac0	-0.11397314
43	0xbd033c62	-0.032040007
44	0x3c4bf46f	0.012448414
45	0xbd40a7a9	-0.047034893
46	0xbe18a1ae	-0.14905426
47	0x3d50503b	0.050857764
48	0x3dad318a	0.084567145
49	0x3dfcdd80	0.12346935
50	0xbddbd648	-0.1073423
51	0x3e0befa4	0.13665634
52	0xbdb9f537	-0.09079974
53	0xbdbd92cb	-0.09256514
54	0x3e2358c1	0.15951826
55	0xbc836ad4	-0.01604215
56	0xbd8b8db4	-0.06814137
57	0xbce1e9f9	-0.027577387
58	0xbdcd43bc	-0.10022685
59	0x3dc89472	0.09793939
60	0xbd262fc6	-0.040572904
61	0x3d3df9bb	0.04638074
62	0x3d56c366	0.05243244
63	0xbbdd74ad	-0.0067582936
64	0xbb418764	-0.0029530162
65	0x3e058b57	0.13041435
66	0xbd0be486	-0.034153484
67	0xbd85a0ae	-0.06524788
68	0x3d919fd1	0.07110561
69	0xbd9c6bc7	-0.076377444
70	0xbd5d7189	-0.054063354
71	0xbd8cf537	-0.068827085
72	0x3df47188	0.11935717
73	0x3dd66d60	0.104700804
74	0x3d7466f1	0.059668485
75	0xbd787bd2	-0.06066496
76	0x3e067cae	0.13133499
77	0xbddab005	-0.10678104
78	0x3c9c91a1	0.01911241
79	0xbcbdd30e	-0.023171928
80	0x3d438725	0.047736306
81	0xbd0ac73d	-0.033881415
82	0x3dab27a7	0.083571725
83	0x3e012bd5	0.12614377
84	0xbd114b01	-0.03547192
85	0x3dccd3db	0.10001346
86	0xbcf862e8	-0.0303206
87	0x3c501d31	0.012702272
88	0x3dbe9eec	0.09307656
89	0xbdd5b069	-0.10434038
90	0x3d9e6398	0.0773384
91	0x3d89d9fd	0.06731031
92	0xbdd29b40	-0.10283518
93	0xbd822d39	-0.06356282
94	0xbda00475	-0.0781335
95	0x3e18b677	0.14913355
96	0xbd93fac5	-0.07225565
97	0x3dc8e8c3	0.09810021
98	0xbc27c5fa	-0.010240072
99	0x3e02e269	0.12781681
100	0x3e1b1320	0.15144014
101	0x3d57fe29	0.05273262
102	0x3d8a1c9d	0.06743739
103	0x3c9b5ed3	0.018966114
104	0x3b8c39e2	0.004279361
105	0xbdcc7713	-0.09983649
106	0x3dfd5437	0.12369578
107	0x3d7187df	0.058967467
108	0xbcda84a9	-0.026674585
109	0x3d9a50ed	0.075349666
110	0xbcb7f897	-0.022457404
111	0xbddf5128	-0.10904151
112	0x3d0d097b	0.03443287
113	0xbda4b519	-0.08042354
114	0x3c96a444	0.018388875
115	0x3da180d7	0.078859024
116	0xbd062f98	-0.032760233
117	0x3d0553f0	0.032550752
118	0x3db91f26	0.09039144
119	0x3e14dfb4	0.14538461
120	0x3cd3252d	0.025774563
121	0x3db5df71	0.08880509
122	0xbe29f6a3	-0.1659799
123	0x3dad40c4	0.08459619
124	0xbd784950	-0.06061679
125	0x3d7c02f7	0.061526265
126	0x3d6c5fc1	0.057708506
127	0xbd221574	-0.03957124
128	0x3d664574	0.05621858
129	0xbd652bd6	-0.05595001
130	0x3db242a0	0.08704114
131	0xbd944fb1	-0.072417624
132	0xbdf08336	-0.117437765
133	0xbdba4a4f	-0.090962045
134	0xbe072791	-0.13198687
135	0xbdfa95a4	-0.12235573
136	0xbd79bf70	-0.060973585
137	0x3d84ea38	0.06489986
138	0xbda2d204	-0.079502136
139	0x3d4c3cff	0.049862858
140	0xbe0accb8	-0.13554657
141	0x3e253f27	0.16137372
142	0x3e079283	0.13239484
143	0xbd3fe42c	-0.04684846
144	0xbd72bd68	-0.059262663
145	0x3d947e8e	0.07250701
146	0xbd0a8f37	-0.033827987
147	0x3dd3327d	0.10312364
148	0xbe2f72bb	-0.1713361
149	0x3e097cca	0.1342651
150	0x3dd876fb	0.10569569
151	0x3d9d0ba7	0.07668238
152	0xbdd8bf7a	-0.10583396
153	0xbdc6827f	-0.09692859
154	0xbd9624e1	-0.07331253
155	0xbd888aeb	-0.066671215
156	0xbce35ede	-0.027755197
157	0xbdaaf68a	-0.08347805
158	0x3e18b82f	0.1491401
159	0xbc949265	-0.018136213
160	0xbdab95cc	-0.08378181
161	0xbde8f452	-0.113747254
162	0xbc0842a6	-0.0083166715
163	0x3ae10797	0.00171684
164	0xbda2e140	-0.07953119
165	0xbda53cac	-0.08068213
166	0x3e0b869d	0.1362557
167	0xbd06b9ee	-0.03289216
168	0x3da3fcce	0.08007203
169	0x3c73ecb3	0.014887976
170	0xbcc88c17	-0.024480863
171	0xbd1deef9	-0.03855798
172	0x3d0fa585	0.03506996
173	0xbc859813	-0.016307866
174	0xbda22700	-0.07917595
175	0x3df9230e	0.12164889
176	0xbc92da77	-0.017926438
177	0x3d96fe58	0.07372731
178	0x3ce54c74	0.027990557
179	0x3d1ce90c	0.03830819
180	0xbdb7ffd9	-0.08984346
181	0x3d6bdd1c	0.057583913
182	0x3aa5844e	0.0012627931
183	0xbbe2d585	-0.006922426
184	0xbde5321e	-0.111912
185	0x3d948cb2	0.07253398
186	0xbd3929cd	-0.04520588
187	0x3da67c7b	0.081292115
188	0xbde164dc	-0.110055655
189	0xbe07c3d9	-0.13258304
190	0x3d8bde6c	0.06829533
191	0xbd38ab8a	-0.045085467
192	0x3c97c244	0.01852525
193	0x3e1f2fba	0.1554555
194	0xbd41156f	-0.04713958
195	0x3e26f1f0	0.1630323
196	0xbe03020d	-0.12793751
197	0xbda0ffd9	-0.07861299
198	0x3e1094a4	0.14119202
199	0x3d515b07	0.0511122

lstm2.weight_ih_l0 f4 [200, 50]
0	0xbdd46af4	-0.10371962
1	0x3d8bde5d	0.06829522
2	0x3cea7acc	0.028623007
3	0xbd840b2b	-0.064474426
4	0xbb05b802	-0.0020403867
5	0x3d6c23f5	0.05765148
6	0xbd131afe	-0.035914414
7	0x3d03b070	0.032150686
8	0x3b7c9aa6	0.0038544326
9	0xbd9bd73b	-0.07609411
10	0x3d5b621d	0.053560365
11	0xbdc154b4	-0.09439984
12	0x3d99a597	0.07502287
13	0x3bdab2d5	0.0066741505
14	0x3cf4be65	0.029875943
15	0xbdbebeda	-0.09313746
16	0xbd346cd3	-0.044049095
17	0x3d108c78	0.03529021
18	0x3d9d09ed	0.07667909
19	0x3d72dafa	0.059290864
20	0x3d60dff7	0.05490109
21	0x3e0cec47	0.13762008
22	0x3c97c3c5	0.018525967
23	0xbd8e2f87	-0.06942659
24	0xbd8d3388	-0.068945944
25	0x3d82612c	0.0636619
26	0x3cd79916	0.026318114
27	0x3dc83772	0.097762
28	0xbd9a1974	-0.07524386
29	0x3d2d38c6	0.04229047
30	0x3de3b3a3	0.11118247
31	0x3da8c0d2	0.082399026
32	0xbe089e8f	-0.13341735
33	0xbe285a3d	-0.16440673
34	0x3da0c1df	0.07849478
35	0xbdc4541e	-0.095863566
36	0xbdb7217c	-0.089419335
37	0x3da6a808	0.08137518
38	0xbd051984	-0.032495037
39	0x3dc777e0	0.09739661
40	0xbe2cf6b7	-0.16890989
41	0xbd9576cf	-0.072980516
42	0x3e069cab	0.13145702
43	0xbd904a06	-0.07045369
44	0xbe0dcaf8	-0.13846958
45	0x3d98ed4d	0.074671365
46	0x3d4a7811	0.04943091
47	0xbd98b1ea	-0.074558094
48	0x3cd75a41	0.026288154
49	0x3d9e41cb	0.07727393
50	0x3e0843fe	0.13307187
51	0xbdc32936	-0.09529345
52	0x3d37f0fd	0.04490756
53	0xbdcb7b65	-0.09935645
54	0xbd226e03	-0.039655697
55	0xbb0a12cf	-0.002106834
56	0xbd0329b4	-0.032022193
57	0xbdfcd244	-0.123447925
58	0xbbb1e88e	-0.005429334
59	0x3d2b7005	0.041854877
60	0x3cdce041	0.026962401
61	0xbdaad32d	-0.0834106
62	0x3cfc7695	0.030818263
63	0xbcf74d51	-0.030188235
64	0xbe16157b	-0.14656632
65	0xbdd5efa2	-0.10446097
66	0xbd22ad5c	-0.03971611
67	0xbd471bce	-0.0486105
68	0xbdc93b37	-0.098257475
69	0xbdc42bed	-0.09578691
70	0x3d4062ac	0.0469691
71	0xbc50dd43	-0.012748065
72	0x3dc955aa	0.09830792
73	0x3cb30e79	0.021857487
74	0x3c83010c	0.01599171
75	0x3cbc5f7e	0.022994753
76	0xbdf1a90d	-0.11799822
77	0x3db99d6a	0.090632275
78	0xbd28dfcd	-0.041229058
79	0xbde8d86f	-0.113694064
80	0x3dbdd274	0.092686564
81	0xbd98da50	-0.07463515
82	0xbd0ab5e5	-0.033864874
83	0xbc83ac36	-0.016073328
84	0xbe01fa60	-0.12693167
85	0xbd88e4f7	-0.066842966
86	0xbd217d27	-0.039425995
87	0xbc5314ee	-0.012883408
88	0x3cdac05e	0.026703056
89	0x3d5786df	0.052618857
90	0xbd8fa8fd	-0.07014654
91	0xba243bd4	-0.00062650186
92	0xbc3685fb	-0.011140342
93	0x3df6b8dc	0.12046978
94	0x3de169cd	0.11006508
95	0x39431160	0.00018603122
96	0x3ded05fc	0.11573407
97	0xbe0cb8de	-0.13742396
98	0xbde4d818	-0.11174029
99	0x3df37ec9	0.11889417
100	0x3d4482e5	0.047976393
101	0x3dfda4b2	0.12384929
102	0xbe1dd8d8	-0.1541475
103	0xbd4afc10	-0.04955679
104	0xbe1f18be	-0.15536782
105	0x3b6b8212	0.0035935682
106	0xbd22aee9	-0.03971759
107	0xba98646e	-0.001162661
108	0x3e1ff732	0.15621641
109	0xbdc401de	-0.09570669
110	0xbbd96ff0	-0.0066356584
111	0x3daca51d	0.0842993
112	0x3dc6fc63	0.09716108
113	0x3d1998c7	0.037499215
114	0x3d938f2e	0.07205044
115	0x3cbfac40	0.023397565
116	0xbd342358	-0.04397902
117	0xbe2c9f03	-0.16857533
118	0xbd6a8f50	-0.05726558
119	0xbd3bbe8e	-0.045836024
120	0xbda63f36	-0.08117525
121	0xbda24a52	-0.07924332
122	0xbaa6dcf0	-0.001273064
123	0x3d8af41d	0.06784842
124	0xbce210ba	-0.027595866
125	0x3d189524	0.037251607
126	0x3e1ddf28	0.15417159
127	0xbde14422	-0.109993234
128	0x3d74c48c	0.059757754
129	0xbe201017	-0.15631138
130	0x3ca6f04e	0.020378258
131	0xbdca19ad	-0.098681785
132	0xbcae4d15	-0.02127699
133	0x3d1c4b37	0.038157668
134	0xbca0845a	-0.01959436
135	0xbc09050c	-0.00836302
136	0x3dac182f	0.0840305
137	0xbdb35c9f	-0.087579004
138	0x3de72fa5	0.11288384
139	0xbd0654de	-0.03279578
140	0xbdaf2db1	-0.08553637
141	0xbcbff531	-0.023432346
142	0x3dbcfdc8	0.092280924
143	0x3d98b817	0.07456987
144	0x3d5a5c6f	0.053310808
145	0xbcb611c9	-0.022225277
146	0x3de61f76	0.112364694
147	0x3d9b1d71	0.07573975
148	0xbd0d3448	-0.034473687
149	0xbdc1f047	-0.094696574
150	0xbdecc029	-0.11560089
151	0xbd473cdd	-0.048642028
152	0xbc10c576	-0.008836141
153	0x3d59046a	0.052982725
154	0xbd2855c8	-0.041097432
155	0x3d951329	0.07279045
156	0x3df901b1	0.12158526
157	0xbdd5acce	-0.104333505
158	0x3e1087dd	0.14114328
159	0x3e0d8438	0.13819969
160	0x3d2e3ab0	0.042536438
161	0x3db4b0ee	0.08822809
162	0x3dce865d	0.100842215
163	0x3e15496d	0.14578791
164	0x3c14f5e7	0.009091831
165	0xbda97b85	-0.082755126
166	0x3dde075b	0.10841247
167	0xbe124538	-0.14284217
168	0xbd26a126	-0.040681027
169	0xbdc6d9d3	-0.097095154
170	0x3b9c7b46	0.0047754375
171	0x3d6e9550	0.058247864
172	0xbbfae3eb	-0.0076565645
173	0x3d9ba513	0.07599845
174	0x3baec592	0.005333611
175	0x3cf12e73	0.029441094
176	0xbb69c858	-0.0035672393
177	0xbdeffb90	-0.117179036
178	0xbc73d5cc	-0.014882516
179	0xbc4b9e64	-0.0124279
180	0x3d9afef8	0.07568163
181	0x3dbfd95d	0.09367631
182	0xbc68dbd0	-0.014212564
183	0xbd3c53bc	-0.045978293
184	0xbdd1c89b	-0.102433406
185	0x3d00cc53	0.03144486
186	0xbdbb8c31	-0.09157599
187	0xbe041f27	-0.12902509
188	0xbd0a7326	-0.03380122
189	0xbdfeb620	-0.12437081
190	0xbd5c049e	-0.05371534
191	0x3ce230a1	0.027611079
192	0xbd6ea951	-0.05826694
193	0x3d21e979	0.039529298
194	0xbd81b34f	-0.063330285
195	0xbd832a1b	-0.06404515
196	0xbddc645f	-0.10761332
197	0x3d2ce30f	0.042208727
198	0x3c0df34e	0.008663965
199	0xbccacc0e	-0.024755504
200	0xbd856c46	-0.06514792
201	0x3e16bf8f	0.14721511
202	0xbdb30e15	-0.0874292
203	0xbbe0902a	-0.006853123
204	0xbe112966	-0.14175949
205	0xbda022cb	-0.07819136
206	0x3da932a0	0.08261609
207	0xbc99d051	-0.01877609
208	0x3d44e2b2	0.048067756
209	0x3ce18dc0	0.027533412
210	0xbdadf718	-0.08494395
211	0xbdcb5d10	-0.0992986
212	0x3e2fed35	0.17180331
213	0x3db8c883	0.090226196
214	0x3d653ee7	0.05596819
215	0x3e1ead66	0.15495834
216	0x3d84227f	0.06451892
217	0x3dbb884d	0.09156857
218	0x3d6455e7	0.055745985
219	0x3d659695	0.05605181
220	0xbe11450e	-0.14186499
221	0xbdeee7d9	-0.11665315
222	0xbd09f799	-0.033683393
223	0xbdeb0206	-0.11474995
224	0xbe11ee14	-0.14250976
225	0xbdad60d4	-0.08465734
226	0xbcb4df2e	-0.022079077
227	0x3d9a72ed	0.075414516
228	0x3e1bb341	0.15205099
229	0xbd955daa	-0.072932556
230	0xbd86d4f3	-0.065835856
231	0x3da31001	0.07962037
232	0xbde2337f	-0.11044978
233	0x3d88cc76	0.06679623
234	0x3d00ab70	0.031413496
235	0x3d60e4a8	0.054905564
236	0xbe0af493	-0.1356986
237	0xbd618a1b	-0.05506335
238	0x3d581e00	0.052762985
239	0x3dc3f04c	0.09567317
240	0xbe203aec	-0.15647477
241	0x3df5ada4	0.1199601
242	0xbda611f8	-0.08108896
243	0x3d14939e	0.03627359
244	0x3c0fe272	0.008782016
245	0xbdd130fd	-0.10214422
246	0xbdd595b3	-0.104289435
247	0x3da3361b	0.07969304
248	0x3bba714e	0.0056897765
249	0xbcf48789	-0.029849784
250	0xbe028dd5	-0.12749417
251	0xbd58f1fb	-0.052965146
252	0xbe022bca	-0.12712017
253	0xbda82e2a	-0.0821193
254	0xbd13c406	-0.036075614
255	0x3aae7a8e	0.0013311671

lstm2.weight_hh_l0 f4 [200, 50]
0	0xbc2eaf48	-0.0106619075
1	0x3e0c2644	0.13686472
2	0x3d21e79a	0.039527513
3	0xbe2b4424	-0.16725212
4	0x3df6d605	0.1205254
5	0xbc3b7961	-0.011442513
6	0x3b10977f	0.0022062955
7	0x3d859910	0.06523335
8	0xbd164746	-0.036689065
9	0x3d5687bc	0.05237554
10	0x3d6feb58	0.05857405
11	0x3e162a1d	0.14664502
12	0x3da021b0	0.078189254
13	0xbddecdc5	-0.10879091
14	0xbc4bd60a	-0.012441168
15	0xbac0ef22	-0.0014719705
16	0xbde17d59	-0.11010236
17	0x3df45598	0.11930388
18	0x3e245762	0.16048959
19	0xbda1ff6c	-0.07910046
20	0x3d0cddb6	0.034391128
21	0x3cd6ddda	0.026228834
22	0xbde3877d	-0.11109827
23	0xbd495c24	-0.049160138
24	0xbddb502b	-0.1070865
25	0x3e1aa0c8	0.15100396
26	0xbd89ded1	-0.06731952
27	0x3d97f4ec	0.07419762
28	0xbdce569f	-0.100751154
29	0x3baeb4e2	0.0053316215
30	0x3c9f37fb	0.019435873
31	0xbdc40007	-0.09570318
32	0xbe059fe5	-0.13049276
33	0xbe18a801	-0.14907838
34	0x3e2ae3e9	0.16688503
35	0xbdf2d9dc	-0.1185796
36	0xbd486005	-0.048919696
37	0x3d64430d	0.055728007
38	0x3cd7eaba	0.026357044
39	0xbd9cf963	-0.07664754
40	0x3dfff07f	0.12497043
41	0x3dc00107	0.09375196
42	0x3d0e71d2	0.034776516
43	0xbdabe7e8	-0.08393842
44	0xbcc2db76	-0.023786288
45	0xbd9f5693	-0.077801846
46	0xbcce32b6	-0.025170665
47	0xbd844021	-0.06457544
48	0x3e248735	0.16067202
49	0xbd2871e3	-0.041124236
50	0x3bc13614	0.005896339
51	0xbd2b89ec	-0.04187958
52	0xbcec28ba	-0.028828014
53	0x3d623bdb	0.055232864
54	0xbd78cf0d	-0.060744334
55	0xbcfdf4c1	-0.031000497
56	0xbdf0ef99	-0.117644496
57	0xbe03f5e3	-0.12886767
58	0xbddb8f6b	-0.10720714
59	0xbceccc5a	-0.028906036
60	0x3db89a29	0.09013779
61	0xbda6a3af	-0.08136689
62	0x3c4bf7e9	0.012449243
63	0x3dd41ad3	0.10356679
64	0x3c319829	0.0108395
65	0x3c8d797b	0.01726984
66	0xbd60750b	-0.05479912
67	0xbca3d1ab	-0.019997438
68	0x3d960ca8	0.07326633
69	0x3dff7f9f	0.12475514
70	0xbdaa1793	-0.08305278
71	0x3dd39a53	0.103321694
72	0x3e13132e	0.14362785
73	0xbc1c3487	-0.009534008
74	0x3ddea867	0.10871964
75	0x3cff4f4b	0.03116574
76	0xbdd8142b	-0.10550722
77	0x3ca7ab65	0.02046747
78	0xbd26fb9e	-0.040767305
79	0x3db51da8	0.08843547
80	0x3d4400a9	0.047852192
81	0x3dfcee2b	0.123501144
82	0x3d50e6f6	0.05100151
83	0x3d61b734	0.055106357
84	0x3da282f4	0.079351336
85	0x3c54e4a1	0.0129939625
86	0x3dfb5fe2	0.122741476
87	0xbc41ed81	-0.0118364105
88	0xbdc8fa3a	-0.09813352
89	0xbe0dbb30	-0.13840938
90	0x3de3fc6f	0.11132132
91	0xbdecff33	-0.11572113
92	0x3d8c7e0a	0.068599775
93	0xbda96fac	-0.08273253
94	0xbdde4a8e	-0.10854064
95	0xbd3876de	-0.045035236
96	0x3de34aaa	0.110982254
97	0x3ad2cd36	0.0016082886
98	0x3dd558dc	0.10417339
99	0x3df9187a	0.12162872
100	0x3d063216	0.03276261
101	0x3dde9e41	0.10870028
102	0xbdabe34a	-0.08392961
103	0xbe0c198f	-0.13681625
104	0xbc02a5fa	-0.007974142
105	0xbcdaa06e	-0.026687827
106	0xbcb9409d	-0.022613818
107	0x3da72d8b	0.081629835
108	0x3b02db6e	0.0019967216
109	0xbcb4b429	-0.022058563
110	0x3e2e5015	0.17022736
111	0x3b2a29ff	0.0025964973
112	0xbe1b03f7	-0.15138231
113	0x3bb04b32	0.0053800577
114	0xbbf56355	-0.007488648
115	0xbc9370c2	-0.017998103
116	0x3d23c4fa	0.039982773
117	0x3da486b1	0.08033503
118	0xbd8cb5ae	-0.0687059
119	0x3ddf5c67	0.10906296
120	0x3d64dbbd	0.05587362
121	0x3dcd9a78	0.10039228
122	0xbd9f7590	-0.07786095
123	0x3d19593a	0.03743861
124	0xbde62211	-0.112369664
125	0x3d9b2046	0.07574515
126	0xbd6e5851	-0.058189694
127	0xbd258fe1	-0.040420417
128	0x3da88745	0.082289256
129	0x3d289b14	0.04116352
130	0x3d806336	0.06268923
131	0xbcba7bed	-0.02276417
132	0x3db2264d	0.086987115
133	0xbddf8f53	-0.10916009
134	0x3dce96b7	0.1008734
135	0x3d330089	0.043701682
136	0x3e11667d	0.14199252
137	0xbe26dbd0	-0.1629479
138	0x3d1749a1	0.036935452
139	0x3d44a119	0.048005197
140	0x3ba458bd	0.0050154612
141	0x3dc4beb6	0.09606688
142	0x3d03e2a2	0.032198556
143	0xbdae59b2	-0.08513202
144	0x3d843443	0.06455281
145	0x3d253dd1	0.040342156
146	0xbe23de87	-0.16002856
147	0x3d2d78ac	0.04235141
148	0xbdd54f4b	-0.104155146
149	0xbd7ad7f1	-0.061241094
150	0x3d4f0dab	0.050550144
151	0x3dc590c1	0.0964675
152	0x3df746d7	0.120740585
153	0x3de54f4b	0.111967646
154	0xbd47016d	-0.048585344
155	0x3deefdff	0.1166954
156	0xbd8965f9	-0.06708903
157	0xbe1fa4fd	-0.15590282
158	0x3db91c69	0.09038622
159	0xbdb3c410	-0.0877763
160	0x3d298be8	0.04139319
161	0xbd55eab4	-0.052225783
162	0xbce8df78	-0.02842687
163	0xbbcbe73a	-0.0062226327
164	0x3d3798ef	0.044823583
165	0xbdb7d3e6	-0.08975963
166	0xbde7eb3c	-0.11324164
167	0x3e032dd1	0.12810446
168	0xbd4ce5ae	-0.050023727
169	0x3d9df01b	0.07711812
170	0xbaeeec8f	-0.0018228459
171	0xbdb41208	-0.08792502
172	0x3d253191	0.040330473
173	0x3d4f782c	0.050651714
174	0xbdef6549	-0.116892405
175	0x3e013c06	0.12620553
176	0xbd93fdfa	-0.072261766
177	0x3d875287	0.06607538
178	0x3e0b3747	0.13595305
179	0xbdd0cc48	-0.101952136
180	0xbdd24978	-0.10267919
181	0xbd4e7f08	-0.050414115
182	0xbdda07f8	-0.10646051
183	0x3d1c31e6	0.038133524
184	0xbde2fd06	-0.11083417
185	0xbd545fb4	-0.051849082
186	0x3cd07c5b	0.025449922
187	0x3d9b8790	0.07594216
188	0xbdd0d9ec	-0.10197815
189	0x3cea0f4c	0.028571747
190	0x3d2d1c25	0.04226317
191	0xbd688b84	-0.056773677
192	0x3da65bf2	0.08123006
193	0xbd9ddf78	-0.07708639
194	0x3d935582	0.07194044
195	0xbe14289a	-0.14468613
196	0xbde6ffb3	-0.112792395
197	0xbd8ceefc	-0.0688152
198	0x3d604843	0.054756414
199	0xbd3dc8eb	-0.04633419
200	0x3cbd1df9	0.023085581
201	0xbd3bb705	-0.045828838
202	0x3c99c31c	0.018769793
203	0xbd6903e8	-0.05688849
204	0xbd68b99b	-0.056817632
205	0x3ddd7496	0.10813253
206	0xbd1fea49	-0.03904179
207	0x3dd04a83	0.10170462
208	0xbdd49a78	-0.10381025
209	0xbd8451ac	-0.0646089
210	0x3d6637c1	0.056205515
211	0x3de257f7	0.11051934
212	0x3da0af27	0.07845908
213	0x3e2697a8	0.1626879
214	0xbd1b02d3	-0.03784449
215	0x3e141f75	0.14465125
216	0x3dd18072	0.10229577
217	0xbdc14c9e	-0.09438442
218	0xbddce9ca	-0.10786779
219	0xbc4865de	-0.012231318
220	0x3d59c66e	0.053167753
221	0x3dade35d	0.08490632
222	0xbde355f6	-0.1110038
223	0xbde04f14	-0.10952583
224	0xbdef6efb	-0.1169109
225	0xbd8854e8	-0.066568196
226	0x3c8f7f1d	0.017516667
227	0x3c242b8d	0.010020149
228	0x3d198d96	0.037488542
229	0x3e0076af	0.12545274
230	0x3c275699	0.010213518
231	0x3d8ed043	0.069733165
232	0x3d6c60eb	0.057709616
233	0xbd1b5a4e	-0.037927918
234	0x3e1c9682	0.15291789
235	0x3e108b13	0.14115553
236	0xbd9f073c	-0.07765052
237	0xbe09d98d	-0.13461895
238	0xbde6b50c	-0.11265001
239	0xbddbd45f	-0.10733866
240	0xbcb2c68d	-0.021823192
241	0xbd772e09	-0.060346637
242	0x3d128a3f	0.035776373
243	0xbc5ac90f	-0.0133536
244	0x3e16b666	0.14718017
245	0xbe02aa0f	-0.12760185
246	0xbd8acf16	-0.0677778
247	0xbd491ae1	-0.0490979
248	0x3dfcb1d7	0.12338608
249	0x3da52ba0	0.080649614
250	0x3daf9af8	0.0857448
251	0x3e1f6603	0.15566258
252	0x3bd40a1c	0.0064709317
253	0x3ce782d0	0.028260618
254	0x3d1e0648	0.03858021
255	0x3d9146da	0.07093592

lstm2.bias_ih_l0 f4 [200]
0	0xbc3507b5	-0.011049201
1	0xbd2ae6fa	-0.041724183
2	0x3d0bc56a	0.034123816
3	0x3d9b470e	0.07581912
4	0xbdd7dc5f	-0.10540079
5	0x3d76f743	0.0602944
6	0xbd8be3da	-0.068305686
7	0xbd2d3ef5	-0.04229637
8	0xbd009bdf	-0.03139865
9	0xbdb10351	-0.08643211
10	0xbc548d2f	-0.012973114
11	0x3ddffc0c	0.10936746
12	0x3d73a504	0.059483543
13	0x3e17c99c	0.14823002
14	0x3dad48c3	0.08461144
15	0x3d71adfc	0.059003815
16	0xbdb93fd1	-0.09045375
17	0xbb78959e	-0.0037930976
18	0xbc2a47e7	-0.010393119
19	0x3c9514ea	0.01819845
20	0x3dcc289d	0.09968684
21	0x3dfea2d1	0.124333985
22	0x3e130c6b	0.14360206
23	0x3de4e78f	0.11176979
24	0xbdc49ab9	-0.095998235
25	0xbda66e86	-0.081265494
26	0x3c59f29f	0.013302474
27	0xbc24264d	-0.010018897
28	0x3c81317a	0.015770663
29	0x3deb3dae	0.11486374
30	0x3e14baf4	0.14524442
31	0xbdfd3696	-0.12363927
32	0x3db94862	0.09047009
33	0x3d8edeeb	0.06976112
34	0xbc26a448	-0.010171004
35	0xbd5ef8de	-0.054436557
36	0xbc3d1b53	-0.011542159
37	0x3c9ed9ea	0.019391019
38	0xbdc8a678	-0.097973764
39	0xbce8acf8	-0.02840279
40	0x3da6af51	0.08138908
41	0xbd82a678	-0.06379408
42	0x3de002fb	0.109380685
43	0xbe275199	-0.16339721
44	0xbd82f589	-0.06394488
45	0xbd8e8668	-0.0695923
46	0x3e1b2da0	0.15154123
47	0xbdd5cfb2	-0.10440005
48	0x3d84d126	0.064852044
49	0xbdc7c324	-0.09754017
50	0x3e18f95d	0.14938875
51	0x3d9f8fb3	0.0779108
52	0xbde43f86	-0.11144929
53	0xbdd2f0ca	-0.10299833
54	0x3d880c4d	0.06642971
55	0xbd8ff003	-0.070282005
56	0xbd9dde26	-0.07708387
57	0x3df860a7	0.1212781
58	0x3d2ba253	0.04190285
59	0xbde7a2db	-0.11310359
60	0x3e0e88d4	0.13919383
61	0x3de3abee	0.11116777
62	0x3e27fca0	0.16404963
63	0x3dace5ab	0.08442243
64	0x3c7729ca	0.015085647
65	0x3dabcb02	0.0838833
66	0x3d972877	0.07380765
67	0xbdcbc279	-0.09949202
68	0x3d8ecc04	0.06972507
69	0x3e027256	0.12738928
70	0xbdcd233b	-0.10016485
71	0x3e1d2752	0.15347031
72	0x3d1fccb3	0.039013576
73	0x3d0f2c87	0.034954574
74	0x3cc40a85	0.023930797
75	0xbd8af605	-0.06785206
76	0x3d0dc26f	0.034609254
77	0x3dd5ffcc	0.1044918
78	0xbc9728d4	-0.018452086
79	0xbdbfb2b8	-0.0936026
80	0x3afa0ece	0.0019077898
81	0xba78c2bc	-0.0009489467
82	0x3e245fb8	0.16052139
83	0x3d1c9f78	0.03823802
84	0x3decb38e	0.11557685
85	0xbc90579e	-0.017619904
86	0x3c23b3ea	0.009991625
87	0x3d5296a1	0.051413182
88	0xbdf1f381	-0.11814023
89	0xbd1c06ac	-0.0380923
90	0x3d1c69c3	0.0381868
91	0x3e2c749e	0.16841361
92	0x3ce8829f	0.028382597
93	0xbc33b1f8	-0.010967724
94	0x3df29084	0.118439704
95	0x3ccf6440	0.025316358
96	0x3cb8d496	0.022562306
97	0x3d73fde2	0.059568293
98	0x3dc00ea7	0.09377795
99	0xbd11acd2	-0.035565205
100	0x3e2475b9	0.16060533
101	0x3d81234a	0.06305559
102	0xbd4fcdd2	-0.050733395
103	0x3c0770f2	0.008266674
104	0xbd88352f	-0.06650769
105	0x3d826cc8	0.063684046
106	0x3d0e04d2	0.034672566
107	0xbde4ccfc	-0.1117191
108	0x3dbff31f	0.093725435
109	0xbdc4484c	-0.09584102
110	0x3e288c2f	0.16459726
111	0x3d8a95db	0.06766864
112	0xbe1d9f7d	-0.15392871
113	0x3e33966a	0.17537847
114	0xbdb4cb54	-0.08827844
115	0xbd89b6fc	-0.067243546
116	0xbc8d49bf	-0.017247079
117	0x3d33d62a	0.043905415
118	0xbd2abbfe	-0.04168319
119	0xbd285d54	-0.04110463
120	0x3e089160	0.13336706
121	0x3db0b736	0.08628695
122	0xbd8c651d	-0.06855223
123	0x3d4b5a26	0.04964652
124	0xbd1a8a4f	-0.037729558
125	0x3d4bb1fa	0.04973028
126	0xbe01b296	-0.12665781
127	0xbddc0080	-0.10742283
128	0xbe001ce8	-0.12511027
129	0xbd49a900	-0.049233437
130	0x3c907afb	0.017636767
131	0x3d91a4a9	0.071114846
132	0xbda68df6	-0.08132546
133	0xbdf5da20	-0.12004495
134	0x3de9ff11	0.11425603
135	0xbdd23c0f	-0.102653615
136	0x3d7b7efd	0.061400402
137	0xbe3229df	-0.17398785
138	0x3d569863	0.05239142
139	0x3df8bb31	0.12145079
140	0x3dad3e5a	0.08459158
141	0x3e063d61	0.13109352
142	0x3c865c81	0.016401531
143	0x3c363842	0.011121811
144	0x3e184eef	0.14873861
145	0xbe0987bd	-0.13430686
146	0xbcda14e8	-0.026621297
147	0xbd842ef2	-0.064542666
148	0x3dbdbd1b	0.09264585
149	0xbe0f13d1	-0.13972403
150	0x3dd9e7de	0.10639928
151	0xbd212b5d	-0.039347995
152	0x3d13d109	0.036088023
153	0xbd6f2d2d	-0.058392692
154	0x3dc00963	0.093767904
155	0xbbf022ab	-0.0073283515
156	0xbe0fd88a	-0.14047447
157	0xbd0f0df4	-0.034925416
158	0xbd71c4d0	-0.059025586
159	0x3dd863ae	0.105658874
160	0xbd94cb0c	-0.072652906
161	0x3cff795e	0.031185802
162	0xbd24f792	-0.040275164
163	0xbdc634b3	-0.0967802
164	0x3de8d203	0.113681816
165	0x3d9ad685	0.075604476
166	0xbd253647	-0.040334966
167	0x3d95fbf1	0.07323445
168	0x3dbdbcec	0.092645496
169	0x3d9cfc0f	0.07665264
170	0xbd8aedde	-0.06783651
171	0xbd9839cb	-0.07432898
172	0xbdbaa431	-0.09113348
173	0xbbf628fd	-0.0075122104
174	0xbe0b2b2b	-0.13590686
175	0x3e1da31a	0.1539425
176	0x3ce106fc	0.02746915
177	0x3dc39a08	0.095508635
178	0xbd194705	-0.037421245
179	0xbdf840a6	-0.12121706
180	0xbd69db13	-0.05709369
181	0x3d6efa17	0.058343973
182	0x3d3f7e9c	0.046751603
183	0x3e3116ac	0.17293805
184	0x3df42a56	0.119221374
185	0xbe1ca1e3	-0.1529613
186	0x3e002c3d	0.12516876
187	0xbca4ad11	-0.020102056
188	0xbd3f81e4	-0.046754733
189	0x3c9cb566	0.019129466
190	0xbc7a7700	-0.015287161
191	0xbdd073bc	-0.101783246
192	0xbd0a37a9	-0.033744488
193	0x3cfa722f	0.030572025
194	0x3d07daab	0.033167522
195	0xbc1d5840	-0.00960356
196	0xbd1f23be	-0.038852446
197	0x3d031f27	0.03201213
198	0xbe1aad46	-0.15105161
199	0xbd7d8481	-0.061893944

lstm2.bias_hh_l0 f4 [200]
0	0xbdba00ec	-0.09082207
1	0x3dcf9eec	0.10137734
2	0x3d372337	0.044711318
3	0x3d21c335	0.039492805
4	0x3d949533	0.0725502
5	0xbc5c14c7	-0.013432688
6	0xbd7ddfa1	-0.061980847
7	0x3d522ad4	0.051310375
8	0xbd2f55cb	-0.042806428
9	0x3e084e8e	0.13311216
10	0x3d303e70	0.043028295
11	0xbcb991a3	-0.022652453
12	0x3dd1f924	0.10252598
13	0xbdc6abe4	-0.09700754
14	0xbd9d82dd	-0.07690976
15	0x3d16a713	0.03678043
16	0xbd32e211	-0.043672625
17	0x3e2ef092	0.17083958
18	0x3da6d283	0.08145621
19	0xbcf515c4	-0.029917605
20	0x3d555c25	0.05208983
21	0x3d31646d	0.043308664
22	0xbc9c6638	-0.01909171
23	0xbdcf016a	-0.101076916
24	0x3db5783d	0.08860824
25	0x3be83a4d	0.007087028
26	0xbabc2f4a	-0.0014357355
27	0xbd3d6422	-0.046238072
28	0xbdb3b947	-0.08775573
29	0x3dae0ef3	0.08498945
30	0x3de6adc2	0.112636104
31	0x3d91a4ac	0.07111487
32	0x3cd22378	0.025651678
33	0x3d72e9de	0.059305064
34	0xbd0faf07	-0.03507903
35	0xbccdc6f3	-0.02511928
36	0xbd84984e	-0.06474362
37	0x3d947dd4	0.07250562
38	0xbd2b313b	-0.041794997
39	0xbd6a8449	-0.057255063
40	0x3e0d557f	0.13802145
41	0xbcead2d3	-0.028664982
42	0xbe0b5edb	-0.13610403
43	0x3cc9fc0a	0.024656314
44	0xbdb07298	-0.08615607
45	0x3cf6da2b	0.030133327
46	0x3d5ae556	0.053441368
47	0xbc81c941	-0.015843036
48	0x3d8d6378	0.06903738
49	0x3d1983b6	0.037479125
50	0xbd883982	-0.06651594
51	0xbce787d3	-0.028263008
52	0xbd929d3d	-0.07158897
53	0xbdd524cf	-0.10407411
54	0x3e118d7a	0.14214125
55	0x3d96bb59	0.073599525
56	0x3d1b04f8	0.037846535
57	0x3e30c2ca	0.17261806
58	0x3e26fa7a	0.16306487
59	0xbc75aecc	-0.014995288
60	0x3c819210	0.015816718
61	0x3d7cd478	0.061726063
62	0x3d845f5a	0.06463499
63	0xbdd74bc9	-0.10512502
64	0xbddce017	-0.10784929
65	0xbdcb31f5	-0.09921638
66	0xbdf8b204	-0.12143329
67	0xbcc5acb8	-0.02413021
68	0x3e13aa7a	0.144205
69	0xbd2d048f	-0.042240676
70	0x3b3f5b44	0.0029198686
71	0x3ded7d06	0.11596112
72	0x3c87655f	0.01652783
73	0x3d00c31d	0.031436075
74	0x3d80a724	0.062818795
75	0x3dace943	0.08442929
76	0x3dd08946	0.10182433
77	0xbd970cb4	-0.0737547
78	0xbdfe0c3d	-0.12404678
79	0x3d9fb9a6	0.077990815
80	0x3dc3c66f	0.095593326
81	0xbd2253f8	-0.03963086
82	0xbddc0ae6	-0.10744266
83	0xbcefc7a3	-0.029269999
84	0xbd929021	-0.07156397
85	0x3d2bdeab	0.0419604
86	0x3e263a4d	0.16233177
87	0x3daee9d5	0.08540694
88	0x3d6d17c3	0.05788399
89	0x3e010166	0.1259819
90	0xbd1a8d22	-0.03773225
91	0x3e26976d	0.16268702
92	0xbd938bfd	-0.07204435
93	0xbdf38d90	-0.11892235
94	0x3cbddd2c	0.023176752
95	0xbd8dede0	-0.06930137
96	0x3e076598	0.13222349
97	0x3dd8e028	0.105896294
98	0xb9d61207	-0.00040830692
99	0xbce8cf83	-0.028419262
100	0xbdb5584b	-0.08854731
101	0x3e04ad05	0.12956627
102	0x39fc4995	0.00048120008
103	0xbdd7cd57	-0.10537212
104	0x3e0eec04	0.1395722
105	0x3dbb4ae2	0.09145142
106	0xbd372d9c	-0.04472123
107	0xbe1df04d	-0.15423699
108	0xbbf382b1	-0.007431351
109	0x3dddf901	0.10838509
110	0xbdb54d76	-0.08852665
111	0x3e1227c7	0.14272986
112	0xbcf1ec79	-0.029531704
113	0x3dc6f56e	0.09714781
114	0xbb0c22fb	-0.0021383155
115	0x3de314ac	0.11087927
116	0xbe2e20c0	-0.1700468
117	0x3ceaa3c8	0.02864255
118	0x3df9e2ef	0.12201487
119	0x3e06aef9	0.13152684
120	0x3d7473b2	0.05968065
121	0x3d994982	0.07484724
122	0xbe2912e7	-0.16511117
123	0x3df92b61	0.12166477
124	0xbdff8336	-0.124761984
125	0x3ddb43d3	0.10706296
126	0x3dd8ad90	0.105799794
127	0xbd71d466	-0.05904045
128	0xbd187041	-0.03721643
129	0x3c6d8e74	0.0144992955
130	0x3ddb128c	0.10696897
131	0xbd2ee4b7	-0.04269859
132	0x3d7c7dfb	0.06164358
133	0xbe14fa32	-0.14548567
134	0x3dbf84ea	0.09351523
135	0x3ddf37cb	0.108993135
136	0x3da339e3	0.079700254
137	0xbc703218	-0.014660381
138	0x3ceadcbf	0.028669713
139	0x3da002f0	0.0781306
140	0x3e0417df	0.12899731
141	0x3d153db3	0.036435794
142	0x3da370fe	0.07980536
143	0xbdbd617e	-0.09247111
144	0xbd91623c	-0.07098815
145	0xbd037ceb	-0.032101553
146	0xbe00fa86	-0.12595567
147	0x3e0030f8	0.1251868
148	0x3dc08bb1	0.09401644
149	0xbca4324b	-0.020043513
150	0xbdcdd3ae	-0.1005014
151	0x3dfe93ed	0.12430558
152	0xbd0e82f6	-0.034792863
153	0x3e25b7be	0.16183373
154	0xbd6501e1	-0.055909995
155	0x3ca7afb3	0.020469522
156	0xbded58c6	-0.11589198
157	0x3d8133d9	0.06308717
158	0xbdcf82c0	-0.101323605
159	0xbd2f59c6	-0.042810224
160	0xbd71ca60	-0.05903089
161	0x3e0a7222	0.135201
162	0x3d9f8222	0.07788493
163	0x3bf6f7f2	0.0075368816
164	0x3e0b5da6	0.13609943
165	0x3c1259cd	0.008932543
166	0xbd4532cd	-0.04814415
167	0x3cdd3511	0.027002843
168	0x3cf64101	0.030060293
169	0x3de90719	0.11378307
170	0x3df3cf9d	0.119048335
171	0xbd75371b	-0.059867006
172	0x3d2e79b4	0.042596534
173	0xbd98c024	-0.07458523
174	0xbe167ac5	-0.1469527
175	0xbdaa6287	-0.08319574
176	0x3d272a25	0.040811677
177	0xbd064909	-0.032784496
178	0xbdc8fde5	-0.098140515
179	0x3ddd6f47	0.1081224
180	0x3e0bf672	0.1366823
181	0xbdb826d7	-0.08991783
182	0xbd34a698	-0.04410419
183	0x3cc61c8e	0.024183538
184	0xbd6d69f4	-0.057962373
185	0xbdfacb25	-0.12245778
186	0x3e102a53	0.14078645
187	0x3e241f0e	0.16027471
188	0x3e0b3784	0.13595396
189	0x3da93345	0.08261732
190	0xbdd05b56	-0.10173671
191	0xbd2f5a88	-0.042810947
192	0x3dd78d6f	0.10525023
193	0xbd31344f	-0.043262776
194	0x3dd6eb25	0.10494069
195	0x3e0ed146	0.13947019
196	0xbd275a4c	-0.0408576
197	0xbd8b98bc	-0.06816241
198	0x3cc6b910	0.024258167
199	0x3d537d73	0.05163331
